…
x_train shape: (28, 28, 1)
### Input shape
xtra_skip is -1

[None, 28, 28, 8]
Added Conv1_layer
[None, 28, 28, 4]
Added Conv2_layer
[None, 28, 28, 4]
Added Conv3_layer
[None, 14, 14, 64]
Added Conv4_layer
[None, 7, 7, 192]
rem 2
Added Caps1_layer
[None, 4, 4, 208]
rem 1
Added Caps2_layer
[None, 4, 4, 208]
[None, None, 8]
[None, 10, 64]
[None, 10, 64]
Added ClassCaps_layer

_________________________________________________________________
Layer (type)                 Output Shape              Param #   
=================================================================
dense_1 (Dense)              (None, 784)               502544    
_________________________________________________________________
reshape_2 (Reshape)          (None, 7, 7, 16)          0         
_________________________________________________________________
batch_normalization_5 (Batch (None, 7, 7, 16)          64        
_________________________________________________________________
conv2d_transpose_1 (Conv2DTr (None, 7, 7, 64)          9280      
_________________________________________________________________
conv2d_transpose_2 (Conv2DTr (None, 14, 14, 32)        18464     
_________________________________________________________________
conv2d_transpose_3 (Conv2DTr (None, 28, 28, 16)        4624      
_________________________________________________________________
conv2d_transpose_4 (Conv2DTr (None, 28, 28, 1)         145       
_________________________________________________________________
activation_1 (Activation)    (None, 28, 28, 1)         0         
_________________________________________________________________
out_recon (Reshape)          (None, 28, 28, 1)         0         
=================================================================
Total params: 535,121
Trainable params: 535,089
Non-trainable params: 32
_________________________________________________________________
__________________________________________________________________________________________________
Layer (type)                    Output Shape         Param #     Connected to                     
==================================================================================================
input_1 (InputLayer)            (None, 28, 28, 1)    0                                            
__________________________________________________________________________________________________
conv2d_1 (Conv2D)               (None, 28, 28, 8)    656         input_1[0][0]                    
__________________________________________________________________________________________________
batch_normalization_1 (BatchNor (None, 28, 28, 8)    32          conv2d_1[0][0]                   
__________________________________________________________________________________________________
conv2d_2 (Conv2D)               (None, 28, 28, 4)    292         batch_normalization_1[0][0]      
__________________________________________________________________________________________________
batch_normalization_2 (BatchNor (None, 28, 28, 4)    16          conv2d_2[0][0]                   
__________________________________________________________________________________________________
conv2d_3 (Conv2D)               (None, 28, 28, 4)    404         batch_normalization_2[0][0]      
__________________________________________________________________________________________________
batch_normalization_3 (BatchNor (None, 28, 28, 4)    16          conv2d_3[0][0]                   
__________________________________________________________________________________________________
conv2d_4 (Conv2D)               (None, 14, 14, 64)   20800       batch_normalization_3[0][0]      
__________________________________________________________________________________________________
batch_normalization_4 (BatchNor (None, 14, 14, 64)   256         conv2d_4[0][0]                   
__________________________________________________________________________________________________
conv2d_5 (Conv2D)               (None, 7, 7, 192)    307392      batch_normalization_4[0][0]      
__________________________________________________________________________________________________
lambda_1 (Lambda)               (None, 7, 7, 192)    0           conv2d_5[0][0]                   
__________________________________________________________________________________________________
conv2d_6 (Conv2D)               (None, 4, 4, 208)    3235024     lambda_1[0][0]                   
__________________________________________________________________________________________________
lambda_2 (Lambda)               (None, 4, 4, 208)    0           conv2d_6[0][0]                   
__________________________________________________________________________________________________
reshape_1 (Reshape)             (None, 416, 8)       0           lambda_2[0][0]                   
__________________________________________________________________________________________________
digitcaps (CapsuleLayer)        (None, 10, 64)       2129920     reshape_1[0][0]                  
__________________________________________________________________________________________________
input_2 (InputLayer)            (None, 10)           0                                            
__________________________________________________________________________________________________
mask_1 (Mask)                   (None, 640)          0           digitcaps[0][0]                  
                                                                 input_2[0][0]                    
__________________________________________________________________________________________________
capsnet (Length)                (None, 10)           0           digitcaps[0][0]                  
__________________________________________________________________________________________________
decoder (Sequential)            (None, 28, 28, 1)    535121      mask_1[0][0]                     
==================================================================================================
Total params: 6,229,929
Trainable params: 6,229,737
Non-trainable params: 192
__________________________________________________________________________________________________
Train shapes: (60000, 28, 28, 1) (60000, 10)
### runid: 062325fe0ec811ee974b218c4823db5d
…
Added Conv2_layer
[None, 14, 14, 16]
Added Conv3_layer
[None, 14, 14, 16]
Added Conv4_layer
[None, 14, 14, 64]
Added Conv5_layer
[None, 7, 7, 416]
rem 4
Added Caps1_layer
[None, 4, 4, 1088]
rem 3
Added Caps2_layer
[None, 2, 2, 96]
rem 2
Added Caps3_layer
[None, 2, 2, 168]
rem 1
Added Caps4_layer
[None, 2, 2, 168]
[None, None, 4]
[None, 10, 4]
[None, 10, 4]
Added ClassCaps_layer

_________________________________________________________________
Layer (type)                 Output Shape              Param #   
=================================================================
dense_1 (Dense)              (None, 784)               32144     
_________________________________________________________________
reshape_2 (Reshape)          (None, 7, 7, 16)          0         
_________________________________________________________________
batch_normalization_6 (Batch (None, 7, 7, 16)          64        
_________________________________________________________________
conv2d_transpose_1 (Conv2DTr (None, 7, 7, 64)          9280      
_________________________________________________________________
conv2d_transpose_2 (Conv2DTr (None, 14, 14, 32)        18464     
_________________________________________________________________
conv2d_transpose_3 (Conv2DTr (None, 28, 28, 16)        4624      
_________________________________________________________________
conv2d_transpose_4 (Conv2DTr (None, 28, 28, 1)         145       
_________________________________________________________________
activation_1 (Activation)    (None, 28, 28, 1)         0         
_________________________________________________________________
out_recon (Reshape)          (None, 28, 28, 1)         0         
=================================================================
Total params: 64,721
Trainable params: 64,689
Non-trainable params: 32
_________________________________________________________________
__________________________________________________________________________________________________
Layer (type)                    Output Shape         Param #     Connected to                     
==================================================================================================
input_1 (InputLayer)            (None, 28, 28, 1)    0                                            
__________________________________________________________________________________________________
conv2d_1 (Conv2D)               (None, 28, 28, 16)   1312        input_1[0][0]                    
__________________________________________________________________________________________________
batch_normalization_1 (BatchNor (None, 28, 28, 16)   64          conv2d_1[0][0]                   
__________________________________________________________________________________________________
conv2d_2 (Conv2D)               (None, 28, 28, 32)   41504       batch_normalization_1[0][0]      
__________________________________________________________________________________________________
batch_normalization_2 (BatchNor (None, 28, 28, 32)   128         conv2d_2[0][0]                   
__________________________________________________________________________________________________
conv2d_3 (Conv2D)               (None, 14, 14, 16)   12816       batch_normalization_2[0][0]      
__________________________________________________________________________________________________
batch_normalization_3 (BatchNor (None, 14, 14, 16)   64          conv2d_3[0][0]                   
__________________________________________________________________________________________________
conv2d_4 (Conv2D)               (None, 14, 14, 16)   2320        batch_normalization_3[0][0]      
__________________________________________________________________________________________________
batch_normalization_4 (BatchNor (None, 14, 14, 16)   64          conv2d_4[0][0]                   
__________________________________________________________________________________________________
conv2d_5 (Conv2D)               (None, 14, 14, 64)   9280        batch_normalization_4[0][0]      
__________________________________________________________________________________________________
batch_normalization_5 (BatchNor (None, 14, 14, 64)   256         conv2d_5[0][0]                   
__________________________________________________________________________________________________
conv2d_6 (Conv2D)               (None, 7, 7, 416)    666016      batch_normalization_5[0][0]      
__________________________________________________________________________________________________
lambda_1 (Lambda)               (None, 7, 7, 416)    0           conv2d_6[0][0]                   
__________________________________________________________________________________________________
conv2d_7 (Conv2D)               (None, 4, 4, 1088)   4074560     lambda_1[0][0]                   
__________________________________________________________________________________________________
lambda_2 (Lambda)               (None, 4, 4, 1088)   0           conv2d_7[0][0]                   
__________________________________________________________________________________________________
conv2d_8 (Conv2D)               (None, 2, 2, 96)     940128      lambda_2[0][0]                   
__________________________________________________________________________________________________
lambda_3 (Lambda)               (None, 2, 2, 96)     0           conv2d_8[0][0]                   
__________________________________________________________________________________________________
conv2d_9 (Conv2D)               (None, 2, 2, 168)    145320      lambda_3[0][0]                   
__________________________________________________________________________________________________
lambda_4 (Lambda)               (None, 2, 2, 168)    0           conv2d_9[0][0]                   
__________________________________________________________________________________________________
reshape_1 (Reshape)             (None, 168, 4)       0           lambda_4[0][0]                   
__________________________________________________________________________________________________
digitcaps (CapsuleLayer)        (None, 10, 4)        26880       reshape_1[0][0]                  
__________________________________________________________________________________________________
input_2 (InputLayer)            (None, 10)           0                                            
__________________________________________________________________________________________________
mask_1 (Mask)                   (None, 40)           0           digitcaps[0][0]                  
                                                                 input_2[0][0]                    
__________________________________________________________________________________________________
capsnet (Length)                (None, 10)           0           digitcaps[0][0]                  
__________________________________________________________________________________________________
decoder (Sequential)            (None, 28, 28, 1)    64721       mask_1[0][0]                     
==================================================================================================
Total params: 5,985,433
Trainable params: 5,985,113
Non-trainable params: 320
__________________________________________________________________________________________________
Train shapes: (60000, 28, 28, 1) (60000, 10)
### runid: 06bc0d0a0ec811ee974b218c4823db5d
…
[None, 28, 28, 32]
Added Conv2_layer
[None, 28, 28, 32]
Added Conv3_layer
[None, 28, 28, 224]
rem 5
Added Caps1_layer
[None, 28, 28, 60]
rem 4
Added Caps2_layer
[None, 14, 14, 960]
rem 3
Added Caps3_layer
[None, 7, 7, 2240]
rem 2
Added Caps4_layer
[None, 7, 7, 400]
rem 1
Added Caps5_layer
[None, 7, 7, 400]
[None, None, 8]
[None, 10, 8]
[None, 10, 8]
Added ClassCaps_layer

_________________________________________________________________
Layer (type)                 Output Shape              Param #   
=================================================================
dense_1 (Dense)              (None, 784)               63504     
_________________________________________________________________
reshape_2 (Reshape)          (None, 7, 7, 16)          0         
_________________________________________________________________
batch_normalization_4 (Batch (None, 7, 7, 16)          64        
_________________________________________________________________
conv2d_transpose_1 (Conv2DTr (None, 7, 7, 64)          9280      
_________________________________________________________________
conv2d_transpose_2 (Conv2DTr (None, 14, 14, 32)        18464     
_________________________________________________________________
conv2d_transpose_3 (Conv2DTr (None, 28, 28, 16)        4624      
_________________________________________________________________
conv2d_transpose_4 (Conv2DTr (None, 28, 28, 1)         145       
_________________________________________________________________
activation_1 (Activation)    (None, 28, 28, 1)         0         
_________________________________________________________________
out_recon (Reshape)          (None, 28, 28, 1)         0         
=================================================================
Total params: 96,081
Trainable params: 96,049
Non-trainable params: 32
_________________________________________________________________
__________________________________________________________________________________________________
Layer (type)                    Output Shape         Param #     Connected to                     
==================================================================================================
input_1 (InputLayer)            (None, 28, 28, 1)    0                                            
__________________________________________________________________________________________________
conv2d_1 (Conv2D)               (None, 28, 28, 64)   5248        input_1[0][0]                    
__________________________________________________________________________________________________
batch_normalization_1 (BatchNor (None, 28, 28, 64)   256         conv2d_1[0][0]                   
__________________________________________________________________________________________________
conv2d_2 (Conv2D)               (None, 28, 28, 32)   165920      batch_normalization_1[0][0]      
__________________________________________________________________________________________________
batch_normalization_2 (BatchNor (None, 28, 28, 32)   128         conv2d_2[0][0]                   
__________________________________________________________________________________________________
conv2d_3 (Conv2D)               (None, 28, 28, 32)   82976       batch_normalization_2[0][0]      
__________________________________________________________________________________________________
batch_normalization_3 (BatchNor (None, 28, 28, 32)   128         conv2d_3[0][0]                   
__________________________________________________________________________________________________
conv2d_4 (Conv2D)               (None, 28, 28, 224)  179424      batch_normalization_3[0][0]      
__________________________________________________________________________________________________
lambda_1 (Lambda)               (None, 28, 28, 224)  0           conv2d_4[0][0]                   
__________________________________________________________________________________________________
conv2d_5 (Conv2D)               (None, 28, 28, 60)   1088700     lambda_1[0][0]                   
__________________________________________________________________________________________________
lambda_2 (Lambda)               (None, 28, 28, 60)   0           conv2d_5[0][0]                   
__________________________________________________________________________________________________
conv2d_6 (Conv2D)               (None, 14, 14, 960)  4666560     lambda_2[0][0]                   
__________________________________________________________________________________________________
lambda_3 (Lambda)               (None, 14, 14, 960)  0           conv2d_6[0][0]                   
__________________________________________________________________________________________________
conv2d_7 (Conv2D)               (None, 7, 7, 2240)   53762240    lambda_3[0][0]                   
__________________________________________________________________________________________________
lambda_4 (Lambda)               (None, 7, 7, 2240)   0           conv2d_7[0][0]                   
__________________________________________________________________________________________________
conv2d_8 (Conv2D)               (None, 7, 7, 400)    22400400    lambda_4[0][0]                   
__________________________________________________________________________________________________
lambda_5 (Lambda)               (None, 7, 7, 400)    0           conv2d_8[0][0]                   
__________________________________________________________________________________________________
reshape_1 (Reshape)             (None, 2450, 8)      0           lambda_5[0][0]                   
__________________________________________________________________________________________________
digitcaps (CapsuleLayer)        (None, 10, 8)        1568000     reshape_1[0][0]                  
__________________________________________________________________________________________________
input_2 (InputLayer)            (None, 10)           0                                            
__________________________________________________________________________________________________
mask_1 (Mask)                   (None, 80)           0           digitcaps[0][0]                  
                                                                 input_2[0][0]                    
__________________________________________________________________________________________________
capsnet (Length)                (None, 10)           0           digitcaps[0][0]                  
__________________________________________________________________________________________________
decoder (Sequential)            (None, 28, 28, 1)    96081       mask_1[0][0]                     
==================================================================================================
Total params: 84,016,061
Trainable params: 84,015,773
Non-trainable params: 288
__________________________________________________________________________________________________
## ERR: number of trainable params 84015773 exceeded limit 20000000

Train accuracy: 0
…
[None, 7, 7, 8]
Added Conv4_layer
ConvertToCaps0
[None, 7, 7, 8, 1]
Added CapsCell_layer

[None, 4, 4, 32, 4]
Added CapsCell_layer

[None, 2, 2, 32, 8]
Added CapsCell_layer

[None, 2, 2, 32, 8]
Tensor("conv_capsule_layer3d_1/stack:0", shape=(5,), dtype=int32)
Added CapsCell_layer

[None, 2, 2, 32, 8]
[None, 2, 2, 32, 8]
[None, 128, 8]
Added FlattenCaps_layer

[None, 10, 16]
_________________________________________________________________
Layer (type)                 Output Shape              Param #   
=================================================================
dense_1 (Dense)              (None, 784)               126224    
_________________________________________________________________
reshape_1 (Reshape)          (None, 7, 7, 16)          0         
_________________________________________________________________
batch_normalization_5 (Batch (None, 7, 7, 16)          64        
_________________________________________________________________
conv2d_transpose_1 (Conv2DTr (None, 7, 7, 64)          9280      
_________________________________________________________________
conv2d_transpose_2 (Conv2DTr (None, 14, 14, 32)        18464     
_________________________________________________________________
conv2d_transpose_3 (Conv2DTr (None, 28, 28, 16)        4624      
_________________________________________________________________
conv2d_transpose_4 (Conv2DTr (None, 28, 28, 1)         145       
_________________________________________________________________
activation_1 (Activation)    (None, 28, 28, 1)         0         
_________________________________________________________________
out_recon (Reshape)          (None, 28, 28, 1)         0         
=================================================================
Total params: 158,801
Trainable params: 158,769
Non-trainable params: 32
_________________________________________________________________
__________________________________________________________________________________________________
Layer (type)                    Output Shape         Param #     Connected to                     
==================================================================================================
input_1 (InputLayer)            (None, 28, 28, 1)    0                                            
__________________________________________________________________________________________________
conv2d_1 (Conv2D)               (None, 28, 28, 64)   5248        input_1[0][0]                    
__________________________________________________________________________________________________
batch_normalization_1 (BatchNor (None, 28, 28, 64)   256         conv2d_1[0][0]                   
__________________________________________________________________________________________________
conv2d_2 (Conv2D)               (None, 14, 14, 64)   36928       batch_normalization_1[0][0]      
__________________________________________________________________________________________________
batch_normalization_2 (BatchNor (None, 14, 14, 64)   256         conv2d_2[0][0]                   
__________________________________________________________________________________________________
conv2d_3 (Conv2D)               (None, 14, 14, 4)    2308        batch_normalization_2[0][0]      
__________________________________________________________________________________________________
batch_normalization_3 (BatchNor (None, 14, 14, 4)    16          conv2d_3[0][0]                   
__________________________________________________________________________________________________
conv2d_4 (Conv2D)               (None, 7, 7, 8)      2600        batch_normalization_3[0][0]      
__________________________________________________________________________________________________
batch_normalization_4 (BatchNor (None, 7, 7, 8)      32          conv2d_4[0][0]                   
__________________________________________________________________________________________________
convert_to_caps_1 (ConvertToCap (None, 7, 7, 8, 1)   0           batch_normalization_4[0][0]      
__________________________________________________________________________________________________
conv2d_caps_1 (Conv2DCaps)      (None, 4, 4, 32, 4)  9216        convert_to_caps_1[0][0]          
__________________________________________________________________________________________________
conv2d_caps_3 (Conv2DCaps)      (None, 4, 4, 32, 4)  147456      conv2d_caps_1[0][0]              
__________________________________________________________________________________________________
conv2d_caps_4 (Conv2DCaps)      (None, 4, 4, 32, 4)  147456      conv2d_caps_3[0][0]              
__________________________________________________________________________________________________
conv2d_caps_2 (Conv2DCaps)      (None, 4, 4, 32, 4)  147456      conv2d_caps_1[0][0]              
__________________________________________________________________________________________________
add_1 (Add)                     (None, 4, 4, 32, 4)  0           conv2d_caps_4[0][0]              
                                                                 conv2d_caps_2[0][0]              
__________________________________________________________________________________________________
conv2d_caps_5 (Conv2DCaps)      (None, 2, 2, 32, 8)  294912      add_1[0][0]                      
__________________________________________________________________________________________________
conv2d_caps_7 (Conv2DCaps)      (None, 2, 2, 32, 8)  589824      conv2d_caps_5[0][0]              
__________________________________________________________________________________________________
conv2d_caps_8 (Conv2DCaps)      (None, 2, 2, 32, 8)  589824      conv2d_caps_7[0][0]              
__________________________________________________________________________________________________
conv2d_caps_6 (Conv2DCaps)      (None, 2, 2, 32, 8)  589824      conv2d_caps_5[0][0]              
__________________________________________________________________________________________________
add_2 (Add)                     (None, 2, 2, 32, 8)  0           conv2d_caps_8[0][0]              
                                                                 conv2d_caps_6[0][0]              
__________________________________________________________________________________________________
conv2d_caps_9 (Conv2DCaps)      (None, 2, 2, 32, 8)  589824      add_2[0][0]                      
__________________________________________________________________________________________________
conv2d_caps_11 (Conv2DCaps)     (None, 2, 2, 32, 8)  589824      conv2d_caps_9[0][0]              
__________________________________________________________________________________________________
conv2d_caps_12 (Conv2DCaps)     (None, 2, 2, 32, 8)  589824      conv2d_caps_11[0][0]             
__________________________________________________________________________________________________
conv2d_caps_10 (Conv2DCaps)     (None, 2, 2, 32, 8)  589824      conv2d_caps_9[0][0]              
__________________________________________________________________________________________________
add_3 (Add)                     (None, 2, 2, 32, 8)  0           conv2d_caps_12[0][0]             
                                                                 conv2d_caps_10[0][0]             
__________________________________________________________________________________________________
conv2d_caps_13 (Conv2DCaps)     (None, 2, 2, 32, 8)  589824      add_3[0][0]                      
__________________________________________________________________________________________________
conv2d_caps_14 (Conv2DCaps)     (None, 2, 2, 32, 8)  589824      conv2d_caps_13[0][0]             
__________________________________________________________________________________________________
conv2d_caps_15 (Conv2DCaps)     (None, 2, 2, 32, 8)  589824      conv2d_caps_14[0][0]             
__________________________________________________________________________________________________
conv_capsule_layer3d_1 (ConvCap (None, 2, 2, 32, 8)  18688       conv2d_caps_13[0][0]             
__________________________________________________________________________________________________
add_4 (Add)                     (None, 2, 2, 32, 8)  0           conv2d_caps_15[0][0]             
                                                                 conv_capsule_layer3d_1[0][0]     
__________________________________________________________________________________________________
flatten_caps_1 (FlattenCaps)    (None, 128, 8)       0           add_4[0][0]                      
__________________________________________________________________________________________________
flatten_caps_2 (FlattenCaps)    (None, 128, 8)       0           add_4[0][0]                      
__________________________________________________________________________________________________
concatenate_1 (Concatenate)     (None, 256, 8)       0           flatten_caps_1[0][0]             
                                                                 flatten_caps_2[0][0]             
__________________________________________________________________________________________________
digit_caps (DClassCaps)         (None, 10, 16)       327840      concatenate_1[0][0]              
__________________________________________________________________________________________________
input_2 (InputLayer)            (None, 10)           0                                            
__________________________________________________________________________________________________
mask_1 (Mask)                   (None, 160)          0           digit_caps[0][0]                 
                                                                 input_2[0][0]                    
__________________________________________________________________________________________________
capsnet (Length)                (None, 10)           0           digit_caps[0][0]                 
__________________________________________________________________________________________________
decoder (Sequential)            (None, 28, 28, 1)    158801      mask_1[0][0]                     
==================================================================================================
Total params: 7,197,709
Trainable params: 7,197,397
Non-trainable params: 312
__________________________________________________________________________________________________
Train shapes: (60000, 28, 28, 1) (60000, 10)
### runid: 079f87d80ec811ee974b218c4823db5d
…
Wrapping...

Number of devices: 1
x_train shape: (28, 28, 1)
### Input shape
xtra_skip is -1

[None, 28, 28, 32]
Added Conv1_layer
[None, 14, 14, 64]
Added Conv2_layer
[None, 14, 14, 64]
Added Conv3_layer
[None, 14, 14, 64]
rem 2
Added Caps1_layer
[None, 14, 14, 84]
rem 1
Added Caps2_layer
[None, 14, 14, 84]
[None, None, 4]
[None, 10, 64]
[None, 10, 64]
Added ClassCaps_layer

_________________________________________________________________
Layer (type)                 Output Shape              Param #   
=================================================================
dense_1 (Dense)              (None, 784)               502544    
_________________________________________________________________
reshape_2 (Reshape)          (None, 7, 7, 16)          0         
_________________________________________________________________
batch_normalization_4 (Batch (None, 7, 7, 16)          64        
_________________________________________________________________
conv2d_transpose_1 (Conv2DTr (None, 7, 7, 64)          9280      
_________________________________________________________________
conv2d_transpose_2 (Conv2DTr (None, 14, 14, 32)        18464     
_________________________________________________________________
conv2d_transpose_3 (Conv2DTr (None, 28, 28, 16)        4624      
_________________________________________________________________
conv2d_transpose_4 (Conv2DTr (None, 28, 28, 1)         145       
_________________________________________________________________
activation_1 (Activation)    (None, 28, 28, 1)         0         
_________________________________________________________________
out_recon (Reshape)          (None, 28, 28, 1)         0         
=================================================================
Total params: 535,121
Trainable params: 535,089
Non-trainable params: 32
_________________________________________________________________
__________________________________________________________________________________________________
Layer (type)                    Output Shape         Param #     Connected to                     
==================================================================================================
input_1 (InputLayer)            (None, 28, 28, 1)    0                                            
__________________________________________________________________________________________________
conv2d_1 (Conv2D)               (None, 28, 28, 32)   2624        input_1[0][0]                    
__________________________________________________________________________________________________
batch_normalization_1 (BatchNor (None, 28, 28, 32)   128         conv2d_1[0][0]                   
__________________________________________________________________________________________________
conv2d_2 (Conv2D)               (None, 14, 14, 64)   165952      batch_normalization_1[0][0]      
__________________________________________________________________________________________________
batch_normalization_2 (BatchNor (None, 14, 14, 64)   256         conv2d_2[0][0]                   
__________________________________________________________________________________________________
conv2d_3 (Conv2D)               (None, 14, 14, 64)   102464      batch_normalization_2[0][0]      
__________________________________________________________________________________________________
batch_normalization_3 (BatchNor (None, 14, 14, 64)   256         conv2d_3[0][0]                   
__________________________________________________________________________________________________
conv2d_4 (Conv2D)               (None, 14, 14, 64)   102464      batch_normalization_3[0][0]      
__________________________________________________________________________________________________
lambda_1 (Lambda)               (None, 14, 14, 64)   0           conv2d_4[0][0]                   
__________________________________________________________________________________________________
conv2d_5 (Conv2D)               (None, 14, 14, 84)   134484      lambda_1[0][0]                   
__________________________________________________________________________________________________
lambda_2 (Lambda)               (None, 14, 14, 84)   0           conv2d_5[0][0]                   
__________________________________________________________________________________________________
reshape_1 (Reshape)             (None, 4116, 4)      0           lambda_2[0][0]                   
__________________________________________________________________________________________________
digitcaps (CapsuleLayer)        (None, 10, 64)       10536960    reshape_1[0][0]                  
__________________________________________________________________________________________________
input_2 (InputLayer)            (None, 10)           0                                            
__________________________________________________________________________________________________
mask_1 (Mask)                   (None, 640)          0           digitcaps[0][0]                  
                                                                 input_2[0][0]                    
__________________________________________________________________________________________________
capsnet (Length)                (None, 10)           0           digitcaps[0][0]                  
__________________________________________________________________________________________________
decoder (Sequential)            (None, 28, 28, 1)    535121      mask_1[0][0]                     
==================================================================================================
Total params: 11,580,709
Trainable params: 11,580,357
Non-trainable params: 352
__________________________________________________________________________________________________
Train shapes: (60000, 28, 28, 1) (60000, 10)
### runid: 0801e7520ec811ee974b218c4823db5d
…
xtra_skip is -1

[None, 28, 28, 8]
Added Conv1_layer
[None, 14, 14, 64]
Added Conv2_layer
[None, 7, 7, 8]
Added Conv3_layer
[None, 7, 7, 152]
rem 4
Added Caps1_layer
[None, 4, 4, 576]
rem 3
Added Caps2_layer
[None, 2, 2, 208]
rem 2
Added Caps3_layer
[None, 2, 2, 1024]
rem 1
Added Caps4_layer
[None, 2, 2, 1024]
[None, None, 16]
[None, 10, 32]
[None, 10, 32]
Added ClassCaps_layer

_________________________________________________________________
Layer (type)                 Output Shape              Param #   
=================================================================
dense_1 (Dense)              (None, 784)               251664    
_________________________________________________________________
reshape_2 (Reshape)          (None, 7, 7, 16)          0         
_________________________________________________________________
batch_normalization_4 (Batch (None, 7, 7, 16)          64        
_________________________________________________________________
conv2d_transpose_1 (Conv2DTr (None, 7, 7, 64)          9280      
_________________________________________________________________
conv2d_transpose_2 (Conv2DTr (None, 14, 14, 32)        18464     
_________________________________________________________________
conv2d_transpose_3 (Conv2DTr (None, 28, 28, 16)        4624      
_________________________________________________________________
conv2d_transpose_4 (Conv2DTr (None, 28, 28, 1)         145       
_________________________________________________________________
activation_1 (Activation)    (None, 28, 28, 1)         0         
_________________________________________________________________
out_recon (Reshape)          (None, 28, 28, 1)         0         
=================================================================
Total params: 284,241
Trainable params: 284,209
Non-trainable params: 32
_________________________________________________________________
__________________________________________________________________________________________________
Layer (type)                    Output Shape         Param #     Connected to                     
==================================================================================================
input_1 (InputLayer)            (None, 28, 28, 1)    0                                            
__________________________________________________________________________________________________
conv2d_1 (Conv2D)               (None, 28, 28, 8)    656         input_1[0][0]                    
__________________________________________________________________________________________________
batch_normalization_1 (BatchNor (None, 28, 28, 8)    32          conv2d_1[0][0]                   
__________________________________________________________________________________________________
conv2d_2 (Conv2D)               (None, 14, 14, 64)   4672        batch_normalization_1[0][0]      
__________________________________________________________________________________________________
batch_normalization_2 (BatchNor (None, 14, 14, 64)   256         conv2d_2[0][0]                   
__________________________________________________________________________________________________
conv2d_3 (Conv2D)               (None, 7, 7, 8)      12808       batch_normalization_2[0][0]      
__________________________________________________________________________________________________
batch_normalization_3 (BatchNor (None, 7, 7, 8)      32          conv2d_3[0][0]                   
__________________________________________________________________________________________________
conv2d_4 (Conv2D)               (None, 7, 7, 152)    98648       batch_normalization_3[0][0]      
__________________________________________________________________________________________________
lambda_1 (Lambda)               (None, 7, 7, 152)    0           conv2d_4[0][0]                   
__________________________________________________________________________________________________
conv2d_5 (Conv2D)               (None, 4, 4, 576)    2189376     lambda_1[0][0]                   
__________________________________________________________________________________________________
lambda_2 (Lambda)               (None, 4, 4, 576)    0           conv2d_5[0][0]                   
__________________________________________________________________________________________________
conv2d_6 (Conv2D)               (None, 2, 2, 208)    2995408     lambda_2[0][0]                   
__________________________________________________________________________________________________
lambda_3 (Lambda)               (None, 2, 2, 208)    0           conv2d_6[0][0]                   
__________________________________________________________________________________________________
conv2d_7 (Conv2D)               (None, 2, 2, 1024)   1917952     lambda_3[0][0]                   
__________________________________________________________________________________________________
lambda_4 (Lambda)               (None, 2, 2, 1024)   0           conv2d_7[0][0]                   
__________________________________________________________________________________________________
reshape_1 (Reshape)             (None, 256, 16)      0           lambda_4[0][0]                   
__________________________________________________________________________________________________
digitcaps (CapsuleLayer)        (None, 10, 32)       1310720     reshape_1[0][0]                  
__________________________________________________________________________________________________
input_2 (InputLayer)            (None, 10)           0                                            
__________________________________________________________________________________________________
mask_1 (Mask)                   (None, 320)          0           digitcaps[0][0]                  
                                                                 input_2[0][0]                    
__________________________________________________________________________________________________
capsnet (Length)                (None, 10)           0           digitcaps[0][0]                  
__________________________________________________________________________________________________
decoder (Sequential)            (None, 28, 28, 1)    284241      mask_1[0][0]                     
==================================================================================================
Total params: 8,814,801
Trainable params: 8,814,609
Non-trainable params: 192
__________________________________________________________________________________________________
Train shapes: (60000, 28, 28, 1) (60000, 10)
### runid: 085b46ee0ec811ee974b218c4823db5d
…
Added CapsCell_layer

[None, 2, 2, 32, 8]
Added CapsCell_layer

[None, 2, 2, 32, 8]
Added CapsCell_layer

[None, 2, 2, 32, 8]
Added CapsCell_layer

[None, 2, 2, 32, 8]
Added CapsCell_layer

[None, 2, 2, 32, 8]
Tensor("conv_capsule_layer3d_1/stack:0", shape=(5,), dtype=int32)
Added CapsCell_layer

[None, 2, 2, 32, 8]
[None, 2, 2, 32, 8]
[None, 128, 8]
Added FlattenCaps_layer

[None, 10, 16]
_________________________________________________________________
Layer (type)                 Output Shape              Param #   
=================================================================
dense_1 (Dense)              (None, 784)               126224    
_________________________________________________________________
reshape_1 (Reshape)          (None, 7, 7, 16)          0         
_________________________________________________________________
batch_normalization_6 (Batch (None, 7, 7, 16)          64        
_________________________________________________________________
conv2d_transpose_1 (Conv2DTr (None, 7, 7, 64)          9280      
_________________________________________________________________
conv2d_transpose_2 (Conv2DTr (None, 14, 14, 32)        18464     
_________________________________________________________________
conv2d_transpose_3 (Conv2DTr (None, 28, 28, 16)        4624      
_________________________________________________________________
conv2d_transpose_4 (Conv2DTr (None, 28, 28, 1)         145       
_________________________________________________________________
activation_1 (Activation)    (None, 28, 28, 1)         0         
_________________________________________________________________
out_recon (Reshape)          (None, 28, 28, 1)         0         
=================================================================
Total params: 158,801
Trainable params: 158,769
Non-trainable params: 32
_________________________________________________________________
__________________________________________________________________________________________________
Layer (type)                    Output Shape         Param #     Connected to                     
==================================================================================================
input_1 (InputLayer)            (None, 28, 28, 1)    0                                            
__________________________________________________________________________________________________
conv2d_1 (Conv2D)               (None, 28, 28, 64)   5248        input_1[0][0]                    
__________________________________________________________________________________________________
batch_normalization_1 (BatchNor (None, 28, 28, 64)   256         conv2d_1[0][0]                   
__________________________________________________________________________________________________
conv2d_2 (Conv2D)               (None, 14, 14, 8)    41480       batch_normalization_1[0][0]      
__________________________________________________________________________________________________
batch_normalization_2 (BatchNor (None, 14, 14, 8)    32          conv2d_2[0][0]                   
__________________________________________________________________________________________________
conv2d_3 (Conv2D)               (None, 14, 14, 4)    804         batch_normalization_2[0][0]      
__________________________________________________________________________________________________
batch_normalization_3 (BatchNor (None, 14, 14, 4)    16          conv2d_3[0][0]                   
__________________________________________________________________________________________________
conv2d_4 (Conv2D)               (None, 7, 7, 32)     3232        batch_normalization_3[0][0]      
__________________________________________________________________________________________________
batch_normalization_4 (BatchNor (None, 7, 7, 32)     128         conv2d_4[0][0]                   
__________________________________________________________________________________________________
conv2d_5 (Conv2D)               (None, 4, 4, 32)     25632       batch_normalization_4[0][0]      
__________________________________________________________________________________________________
batch_normalization_5 (BatchNor (None, 4, 4, 32)     128         conv2d_5[0][0]                   
__________________________________________________________________________________________________
convert_to_caps_1 (ConvertToCap (None, 4, 4, 32, 1)  0           batch_normalization_5[0][0]      
__________________________________________________________________________________________________
conv2d_caps_1 (Conv2DCaps)      (None, 2, 2, 32, 4)  36864       convert_to_caps_1[0][0]          
__________________________________________________________________________________________________
conv2d_caps_3 (Conv2DCaps)      (None, 2, 2, 32, 4)  147456      conv2d_caps_1[0][0]              
__________________________________________________________________________________________________
conv2d_caps_4 (Conv2DCaps)      (None, 2, 2, 32, 4)  147456      conv2d_caps_3[0][0]              
__________________________________________________________________________________________________
conv2d_caps_2 (Conv2DCaps)      (None, 2, 2, 32, 4)  147456      conv2d_caps_1[0][0]              
__________________________________________________________________________________________________
add_1 (Add)                     (None, 2, 2, 32, 4)  0           conv2d_caps_4[0][0]              
                                                                 conv2d_caps_2[0][0]              
__________________________________________________________________________________________________
conv2d_caps_5 (Conv2DCaps)      (None, 2, 2, 32, 8)  294912      add_1[0][0]                      
__________________________________________________________________________________________________
conv2d_caps_7 (Conv2DCaps)      (None, 2, 2, 32, 8)  589824      conv2d_caps_5[0][0]              
__________________________________________________________________________________________________
conv2d_caps_8 (Conv2DCaps)      (None, 2, 2, 32, 8)  589824      conv2d_caps_7[0][0]              
__________________________________________________________________________________________________
conv2d_caps_6 (Conv2DCaps)      (None, 2, 2, 32, 8)  589824      conv2d_caps_5[0][0]              
__________________________________________________________________________________________________
add_2 (Add)                     (None, 2, 2, 32, 8)  0           conv2d_caps_8[0][0]              
                                                                 conv2d_caps_6[0][0]              
__________________________________________________________________________________________________
conv2d_caps_9 (Conv2DCaps)      (None, 2, 2, 32, 8)  589824      add_2[0][0]                      
__________________________________________________________________________________________________
conv2d_caps_11 (Conv2DCaps)     (None, 2, 2, 32, 8)  589824      conv2d_caps_9[0][0]              
__________________________________________________________________________________________________
conv2d_caps_12 (Conv2DCaps)     (None, 2, 2, 32, 8)  589824      conv2d_caps_11[0][0]             
__________________________________________________________________________________________________
conv2d_caps_10 (Conv2DCaps)     (None, 2, 2, 32, 8)  589824      conv2d_caps_9[0][0]              
__________________________________________________________________________________________________
add_3 (Add)                     (None, 2, 2, 32, 8)  0           conv2d_caps_12[0][0]             
                                                                 conv2d_caps_10[0][0]             
__________________________________________________________________________________________________
conv2d_caps_13 (Conv2DCaps)     (None, 2, 2, 32, 8)  589824      add_3[0][0]                      
__________________________________________________________________________________________________
conv2d_caps_15 (Conv2DCaps)     (None, 2, 2, 32, 8)  589824      conv2d_caps_13[0][0]             
__________________________________________________________________________________________________
conv2d_caps_16 (Conv2DCaps)     (None, 2, 2, 32, 8)  589824      conv2d_caps_15[0][0]             
__________________________________________________________________________________________________
conv2d_caps_14 (Conv2DCaps)     (None, 2, 2, 32, 8)  589824      conv2d_caps_13[0][0]             
__________________________________________________________________________________________________
add_4 (Add)                     (None, 2, 2, 32, 8)  0           conv2d_caps_16[0][0]             
                                                                 conv2d_caps_14[0][0]             
__________________________________________________________________________________________________
conv2d_caps_17 (Conv2DCaps)     (None, 2, 2, 32, 8)  589824      add_4[0][0]                      
__________________________________________________________________________________________________
conv2d_caps_19 (Conv2DCaps)     (None, 2, 2, 32, 8)  589824      conv2d_caps_17[0][0]             
__________________________________________________________________________________________________
conv2d_caps_20 (Conv2DCaps)     (None, 2, 2, 32, 8)  589824      conv2d_caps_19[0][0]             
__________________________________________________________________________________________________
conv2d_caps_18 (Conv2DCaps)     (None, 2, 2, 32, 8)  589824      conv2d_caps_17[0][0]             
__________________________________________________________________________________________________
add_5 (Add)                     (None, 2, 2, 32, 8)  0           conv2d_caps_20[0][0]             
                                                                 conv2d_caps_18[0][0]             
__________________________________________________________________________________________________
conv2d_caps_21 (Conv2DCaps)     (None, 2, 2, 32, 8)  589824      add_5[0][0]                      
__________________________________________________________________________________________________
conv2d_caps_23 (Conv2DCaps)     (None, 2, 2, 32, 8)  589824      conv2d_caps_21[0][0]             
__________________________________________________________________________________________________
conv2d_caps_24 (Conv2DCaps)     (None, 2, 2, 32, 8)  589824      conv2d_caps_23[0][0]             
__________________________________________________________________________________________________
conv2d_caps_22 (Conv2DCaps)     (None, 2, 2, 32, 8)  589824      conv2d_caps_21[0][0]             
__________________________________________________________________________________________________
add_6 (Add)                     (None, 2, 2, 32, 8)  0           conv2d_caps_24[0][0]             
                                                                 conv2d_caps_22[0][0]             
__________________________________________________________________________________________________
conv2d_caps_25 (Conv2DCaps)     (None, 2, 2, 32, 8)  589824      add_6[0][0]                      
__________________________________________________________________________________________________
conv2d_caps_26 (Conv2DCaps)     (None, 2, 2, 32, 8)  589824      conv2d_caps_25[0][0]             
__________________________________________________________________________________________________
conv2d_caps_27 (Conv2DCaps)     (None, 2, 2, 32, 8)  589824      conv2d_caps_26[0][0]             
__________________________________________________________________________________________________
conv_capsule_layer3d_1 (ConvCap (None, 2, 2, 32, 8)  18688       conv2d_caps_25[0][0]             
__________________________________________________________________________________________________
add_7 (Add)                     (None, 2, 2, 32, 8)  0           conv2d_caps_27[0][0]             
                                                                 conv_capsule_layer3d_1[0][0]     
__________________________________________________________________________________________________
flatten_caps_1 (FlattenCaps)    (None, 128, 8)       0           add_7[0][0]                      
__________________________________________________________________________________________________
flatten_caps_2 (FlattenCaps)    (None, 128, 8)       0           add_7[0][0]                      
__________________________________________________________________________________________________
concatenate_1 (Concatenate)     (None, 256, 8)       0           flatten_caps_1[0][0]             
                                                                 flatten_caps_2[0][0]             
__________________________________________________________________________________________________
digit_caps (DClassCaps)         (None, 10, 16)       327840      concatenate_1[0][0]              
__________________________________________________________________________________________________
input_2 (InputLayer)            (None, 10)           0                                            
__________________________________________________________________________________________________
mask_1 (Mask)                   (None, 160)          0           digit_caps[0][0]                 
                                                                 input_2[0][0]                    
__________________________________________________________________________________________________
capsnet (Length)                (None, 10)           0           digit_caps[0][0]                 
__________________________________________________________________________________________________
decoder (Sequential)            (None, 28, 28, 1)    158801      mask_1[0][0]                     
==================================================================================================
Total params: 14,332,557
Trainable params: 14,332,245
Non-trainable params: 312
__________________________________________________________________________________________________
Train shapes: (60000, 28, 28, 1) (60000, 10)
### runid: 08fe16ee0ec811ee974b218c4823db5d
…
output shape after reshape (10000, 56, 56, 1)
x_train shape: (56, 56, 1)
### Input shape
xtra_skip is -1

[None, 56, 56, 32]
Added Conv1_layer
[None, 28, 28, 64]
Added Conv2_layer
[None, 14, 14, 64]
Added Conv3_layer
[None, 7, 7, 32]
Added Conv4_layer
[None, 4, 4, 72]
rem 1
Added Caps1_layer
[None, 4, 4, 72]
[None, None, 4]
[None, 10, 8]
[None, 10, 8]
Added ClassCaps_layer

_________________________________________________________________
Layer (type)                 Output Shape              Param #   
=================================================================
dense_1 (Dense)              (None, 784)               63504     
_________________________________________________________________
reshape_2 (Reshape)          (None, 7, 7, 16)          0         
_________________________________________________________________
batch_normalization_5 (Batch (None, 7, 7, 16)          64        
_________________________________________________________________
conv2d_transpose_1 (Conv2DTr (None, 7, 7, 64)          9280      
_________________________________________________________________
conv2d_transpose_2 (Conv2DTr (None, 14, 14, 32)        18464     
_________________________________________________________________
conv2d_transpose_3 (Conv2DTr (None, 28, 28, 16)        4624      
_________________________________________________________________
conv2d_transpose_4 (Conv2DTr (None, 28, 28, 4)         580       
_________________________________________________________________
activation_1 (Activation)    (None, 28, 28, 4)         0         
_________________________________________________________________
out_recon (Reshape)          (None, 56, 56, 1)         0         
=================================================================
Total params: 96,516
Trainable params: 96,484
Non-trainable params: 32
_________________________________________________________________
__________________________________________________________________________________________________
Layer (type)                    Output Shape         Param #     Connected to                     
==================================================================================================
input_1 (InputLayer)            (None, 56, 56, 1)    0                                            
__________________________________________________________________________________________________
conv2d_1 (Conv2D)               (None, 56, 56, 32)   2624        input_1[0][0]                    
__________________________________________________________________________________________________
batch_normalization_1 (BatchNor (None, 56, 56, 32)   128         conv2d_1[0][0]                   
__________________________________________________________________________________________________
conv2d_2 (Conv2D)               (None, 28, 28, 64)   51264       batch_normalization_1[0][0]      
__________________________________________________________________________________________________
batch_normalization_2 (BatchNor (None, 28, 28, 64)   256         conv2d_2[0][0]                   
__________________________________________________________________________________________________
conv2d_3 (Conv2D)               (None, 14, 14, 64)   36928       batch_normalization_2[0][0]      
__________________________________________________________________________________________________
batch_normalization_3 (BatchNor (None, 14, 14, 64)   256         conv2d_3[0][0]                   
__________________________________________________________________________________________________
conv2d_4 (Conv2D)               (None, 7, 7, 32)     18464       batch_normalization_3[0][0]      
__________________________________________________________________________________________________
batch_normalization_4 (BatchNor (None, 7, 7, 32)     128         conv2d_4[0][0]                   
__________________________________________________________________________________________________
conv2d_5 (Conv2D)               (None, 4, 4, 72)     186696      batch_normalization_4[0][0]      
__________________________________________________________________________________________________
lambda_1 (Lambda)               (None, 4, 4, 72)     0           conv2d_5[0][0]                   
__________________________________________________________________________________________________
reshape_1 (Reshape)             (None, 288, 4)       0           lambda_1[0][0]                   
__________________________________________________________________________________________________
digitcaps (CapsuleLayer)        (None, 10, 8)        92160       reshape_1[0][0]                  
__________________________________________________________________________________________________
input_2 (InputLayer)            (None, 10)           0                                            
__________________________________________________________________________________________________
mask_1 (Mask)                   (None, 80)           0           digitcaps[0][0]                  
                                                                 input_2[0][0]                    
__________________________________________________________________________________________________
capsnet (Length)                (None, 10)           0           digitcaps[0][0]                  
__________________________________________________________________________________________________
decoder (Sequential)            (None, 56, 56, 1)    96516       mask_1[0][0]                     
==================================================================================================
Total params: 485,420
Trainable params: 485,004
Non-trainable params: 416
__________________________________________________________________________________________________
Train shapes: (60000, 28, 28, 1) (60000, 10)
### runid: 0d30a1320ec811ee974b218c4823db5d
…
[None, 28, 28, 8, 1]
Added CapsCell_layer

[None, 28, 28, 32, 4]
Added CapsCell_layer

[None, 14, 14, 32, 8]
Added CapsCell_layer

[None, 7, 7, 32, 8]
Added CapsCell_layer

[None, 7, 7, 32, 8]
Tensor("conv_capsule_layer3d_1/stack:0", shape=(5,), dtype=int32)
Added CapsCell_layer

[None, 7, 7, 32, 8]
[None, 7, 7, 32, 8]
[None, 1568, 8]
Added FlattenCaps_layer

[None, 10, 16]
_________________________________________________________________
Layer (type)                 Output Shape              Param #   
=================================================================
dense_1 (Dense)              (None, 784)               126224    
_________________________________________________________________
reshape_1 (Reshape)          (None, 7, 7, 16)          0         
_________________________________________________________________
batch_normalization_5 (Batch (None, 7, 7, 16)          64        
_________________________________________________________________
conv2d_transpose_1 (Conv2DTr (None, 7, 7, 64)          9280      
_________________________________________________________________
conv2d_transpose_2 (Conv2DTr (None, 14, 14, 32)        18464     
_________________________________________________________________
conv2d_transpose_3 (Conv2DTr (None, 28, 28, 16)        4624      
_________________________________________________________________
conv2d_transpose_4 (Conv2DTr (None, 28, 28, 4)         580       
_________________________________________________________________
activation_1 (Activation)    (None, 28, 28, 4)         0         
_________________________________________________________________
out_recon (Reshape)          (None, 56, 56, 1)         0         
=================================================================
Total params: 159,236
Trainable params: 159,204
Non-trainable params: 32
_________________________________________________________________
__________________________________________________________________________________________________
Layer (type)                    Output Shape         Param #     Connected to                     
==================================================================================================
input_1 (InputLayer)            (None, 56, 56, 1)    0                                            
__________________________________________________________________________________________________
conv2d_1 (Conv2D)               (None, 56, 56, 8)    656         input_1[0][0]                    
__________________________________________________________________________________________________
batch_normalization_1 (BatchNor (None, 56, 56, 8)    32          conv2d_1[0][0]                   
__________________________________________________________________________________________________
conv2d_2 (Conv2D)               (None, 56, 56, 8)    1608        batch_normalization_1[0][0]      
__________________________________________________________________________________________________
batch_normalization_2 (BatchNor (None, 56, 56, 8)    32          conv2d_2[0][0]                   
__________________________________________________________________________________________________
conv2d_3 (Conv2D)               (None, 28, 28, 4)    2596        batch_normalization_2[0][0]      
__________________________________________________________________________________________________
batch_normalization_3 (BatchNor (None, 28, 28, 4)    16          conv2d_3[0][0]                   
__________________________________________________________________________________________________
conv2d_4 (Conv2D)               (None, 28, 28, 8)    808         batch_normalization_3[0][0]      
__________________________________________________________________________________________________
batch_normalization_4 (BatchNor (None, 28, 28, 8)    32          conv2d_4[0][0]                   
__________________________________________________________________________________________________
convert_to_caps_1 (ConvertToCap (None, 28, 28, 8, 1) 0           batch_normalization_4[0][0]      
__________________________________________________________________________________________________
conv2d_caps_1 (Conv2DCaps)      (None, 28, 28, 32, 4 9216        convert_to_caps_1[0][0]          
__________________________________________________________________________________________________
conv2d_caps_3 (Conv2DCaps)      (None, 28, 28, 32, 4 147456      conv2d_caps_1[0][0]              
…
__________________________________________________________________________________________________
conv2d_caps_6 (Conv2DCaps)      (None, 14, 14, 32, 8 589824      conv2d_caps_5[0][0]              
__________________________________________________________________________________________________
add_2 (Add)                     (None, 14, 14, 32, 8 0           conv2d_caps_8[0][0]              
                                                                 conv2d_caps_6[0][0]              
__________________________________________________________________________________________________
conv2d_caps_9 (Conv2DCaps)      (None, 7, 7, 32, 8)  589824      add_2[0][0]                      
__________________________________________________________________________________________________
conv2d_caps_11 (Conv2DCaps)     (None, 7, 7, 32, 8)  589824      conv2d_caps_9[0][0]              
__________________________________________________________________________________________________
conv2d_caps_12 (Conv2DCaps)     (None, 7, 7, 32, 8)  589824      conv2d_caps_11[0][0]             
__________________________________________________________________________________________________
conv2d_caps_10 (Conv2DCaps)     (None, 7, 7, 32, 8)  589824      conv2d_caps_9[0][0]              
__________________________________________________________________________________________________
add_3 (Add)                     (None, 7, 7, 32, 8)  0           conv2d_caps_12[0][0]             
                                                                 conv2d_caps_10[0][0]             
__________________________________________________________________________________________________
conv2d_caps_13 (Conv2DCaps)     (None, 7, 7, 32, 8)  589824      add_3[0][0]                      
__________________________________________________________________________________________________
conv2d_caps_15 (Conv2DCaps)     (None, 7, 7, 32, 8)  589824      conv2d_caps_13[0][0]             
__________________________________________________________________________________________________
conv2d_caps_16 (Conv2DCaps)     (None, 7, 7, 32, 8)  589824      conv2d_caps_15[0][0]             
__________________________________________________________________________________________________
conv2d_caps_14 (Conv2DCaps)     (None, 7, 7, 32, 8)  589824      conv2d_caps_13[0][0]             
__________________________________________________________________________________________________
add_4 (Add)                     (None, 7, 7, 32, 8)  0           conv2d_caps_16[0][0]             
                                                                 conv2d_caps_14[0][0]             
__________________________________________________________________________________________________
conv2d_caps_17 (Conv2DCaps)     (None, 7, 7, 32, 8)  589824      add_4[0][0]                      
__________________________________________________________________________________________________
conv2d_caps_18 (Conv2DCaps)     (None, 7, 7, 32, 8)  589824      conv2d_caps_17[0][0]             
__________________________________________________________________________________________________
conv2d_caps_19 (Conv2DCaps)     (None, 7, 7, 32, 8)  589824      conv2d_caps_18[0][0]             
__________________________________________________________________________________________________
conv_capsule_layer3d_1 (ConvCap (None, 7, 7, 32, 8)  18688       conv2d_caps_17[0][0]             
__________________________________________________________________________________________________
add_5 (Add)                     (None, 7, 7, 32, 8)  0           conv2d_caps_19[0][0]             
                                                                 conv_capsule_layer3d_1[0][0]     
__________________________________________________________________________________________________
flatten_caps_1 (FlattenCaps)    (None, 1568, 8)      0           add_5[0][0]                      
__________________________________________________________________________________________________
flatten_caps_2 (FlattenCaps)    (None, 1568, 8)      0           add_5[0][0]                      
__________________________________________________________________________________________________
concatenate_1 (Concatenate)     (None, 3136, 8)      0           flatten_caps_1[0][0]             
                                                                 flatten_caps_2[0][0]             
__________________________________________________________________________________________________
digit_caps (DClassCaps)         (None, 10, 16)       4014240     concatenate_1[0][0]              
__________________________________________________________________________________________________
input_2 (InputLayer)            (None, 10)           0                                            
__________________________________________________________________________________________________
mask_1 (Mask)                   (None, 160)          0           digit_caps[0][0]                 
                                                                 input_2[0][0]                    
__________________________________________________________________________________________________
capsnet (Length)                (None, 10)           0           digit_caps[0][0]                 
__________________________________________________________________________________________________
decoder (Sequential)            (None, 56, 56, 1)    159236      mask_1[0][0]                     
==================================================================================================
Total params: 13,201,976
Trainable params: 13,201,888
Non-trainable params: 88
__________________________________________________________________________________________________
Train shapes: (60000, 28, 28, 1) (60000, 10)
### runid: 0db5bc960ec811ee974b218c4823db5d
…
[None, 14, 14, 32, 8]
Added CapsCell_layer

[None, 7, 7, 32, 8]
Added CapsCell_layer

[None, 4, 4, 32, 8]
Added CapsCell_layer

[None, 2, 2, 32, 8]
Added CapsCell_layer

[None, 2, 2, 32, 8]
Tensor("conv_capsule_layer3d_1/stack:0", shape=(5,), dtype=int32)
Added CapsCell_layer

[None, 2, 2, 32, 8]
[None, 2, 2, 32, 8]
[None, 128, 8]
Added FlattenCaps_layer

[None, 10, 16]
_________________________________________________________________
Layer (type)                 Output Shape              Param #   
=================================================================
dense_1 (Dense)              (None, 784)               126224    
_________________________________________________________________
reshape_1 (Reshape)          (None, 7, 7, 16)          0         
_________________________________________________________________
batch_normalization_7 (Batch (None, 7, 7, 16)          64        
_________________________________________________________________
conv2d_transpose_1 (Conv2DTr (None, 7, 7, 64)          9280      
_________________________________________________________________
conv2d_transpose_2 (Conv2DTr (None, 14, 14, 32)        18464     
_________________________________________________________________
conv2d_transpose_3 (Conv2DTr (None, 28, 28, 16)        4624      
_________________________________________________________________
conv2d_transpose_4 (Conv2DTr (None, 28, 28, 4)         580       
_________________________________________________________________
activation_1 (Activation)    (None, 28, 28, 4)         0         
_________________________________________________________________
out_recon (Reshape)          (None, 56, 56, 1)         0         
=================================================================
Total params: 159,236
Trainable params: 159,204
Non-trainable params: 32
_________________________________________________________________
__________________________________________________________________________________________________
Layer (type)                    Output Shape         Param #     Connected to                     
==================================================================================================
input_1 (InputLayer)            (None, 56, 56, 1)    0                                            
__________________________________________________________________________________________________
conv2d_1 (Conv2D)               (None, 56, 56, 8)    656         input_1[0][0]                    
__________________________________________________________________________________________________
batch_normalization_1 (BatchNor (None, 56, 56, 8)    32          conv2d_1[0][0]                   
__________________________________________________________________________________________________
conv2d_2 (Conv2D)               (None, 56, 56, 4)    292         batch_normalization_1[0][0]      
__________________________________________________________________________________________________
batch_normalization_2 (BatchNor (None, 56, 56, 4)    16          conv2d_2[0][0]                   
__________________________________________________________________________________________________
conv2d_3 (Conv2D)               (None, 56, 56, 64)   20800       batch_normalization_2[0][0]      
__________________________________________________________________________________________________
batch_normalization_3 (BatchNor (None, 56, 56, 64)   256         conv2d_3[0][0]                   
__________________________________________________________________________________________________
conv2d_4 (Conv2D)               (None, 56, 56, 8)    41480       batch_normalization_3[0][0]      
__________________________________________________________________________________________________
batch_normalization_4 (BatchNor (None, 56, 56, 8)    32          conv2d_4[0][0]                   
__________________________________________________________________________________________________
conv2d_5 (Conv2D)               (None, 56, 56, 32)   6432        batch_normalization_4[0][0]      
__________________________________________________________________________________________________
batch_normalization_5 (BatchNor (None, 56, 56, 32)   128         conv2d_5[0][0]                   
__________________________________________________________________________________________________
conv2d_6 (Conv2D)               (None, 56, 56, 64)   51264       batch_normalization_5[0][0]      
__________________________________________________________________________________________________
batch_normalization_6 (BatchNor (None, 56, 56, 64)   256         conv2d_6[0][0]                   
__________________________________________________________________________________________________
convert_to_caps_1 (ConvertToCap (None, 56, 56, 64, 1 0           batch_normalization_6[0][0]      
__________________________________________________________________________________________________
conv2d_caps_1 (Conv2DCaps)      (None, 28, 28, 32, 4 73728       convert_to_caps_1[0][0]          
…
__________________________________________________________________________________________________
conv2d_caps_6 (Conv2DCaps)      (None, 14, 14, 32, 8 589824      conv2d_caps_5[0][0]              
__________________________________________________________________________________________________
add_2 (Add)                     (None, 14, 14, 32, 8 0           conv2d_caps_8[0][0]              
                                                                 conv2d_caps_6[0][0]              
__________________________________________________________________________________________________
conv2d_caps_9 (Conv2DCaps)      (None, 7, 7, 32, 8)  589824      add_2[0][0]                      
__________________________________________________________________________________________________
conv2d_caps_11 (Conv2DCaps)     (None, 7, 7, 32, 8)  589824      conv2d_caps_9[0][0]              
__________________________________________________________________________________________________
conv2d_caps_12 (Conv2DCaps)     (None, 7, 7, 32, 8)  589824      conv2d_caps_11[0][0]             
__________________________________________________________________________________________________
conv2d_caps_10 (Conv2DCaps)     (None, 7, 7, 32, 8)  589824      conv2d_caps_9[0][0]              
__________________________________________________________________________________________________
add_3 (Add)                     (None, 7, 7, 32, 8)  0           conv2d_caps_12[0][0]             
                                                                 conv2d_caps_10[0][0]             
__________________________________________________________________________________________________
conv2d_caps_13 (Conv2DCaps)     (None, 4, 4, 32, 8)  589824      add_3[0][0]                      
__________________________________________________________________________________________________
conv2d_caps_15 (Conv2DCaps)     (None, 4, 4, 32, 8)  589824      conv2d_caps_13[0][0]             
__________________________________________________________________________________________________
conv2d_caps_16 (Conv2DCaps)     (None, 4, 4, 32, 8)  589824      conv2d_caps_15[0][0]             
__________________________________________________________________________________________________
conv2d_caps_14 (Conv2DCaps)     (None, 4, 4, 32, 8)  589824      conv2d_caps_13[0][0]             
__________________________________________________________________________________________________
add_4 (Add)                     (None, 4, 4, 32, 8)  0           conv2d_caps_16[0][0]             
                                                                 conv2d_caps_14[0][0]             
__________________________________________________________________________________________________
conv2d_caps_17 (Conv2DCaps)     (None, 2, 2, 32, 8)  589824      add_4[0][0]                      
__________________________________________________________________________________________________
conv2d_caps_19 (Conv2DCaps)     (None, 2, 2, 32, 8)  589824      conv2d_caps_17[0][0]             
__________________________________________________________________________________________________
conv2d_caps_20 (Conv2DCaps)     (None, 2, 2, 32, 8)  589824      conv2d_caps_19[0][0]             
__________________________________________________________________________________________________
conv2d_caps_18 (Conv2DCaps)     (None, 2, 2, 32, 8)  589824      conv2d_caps_17[0][0]             
__________________________________________________________________________________________________
add_5 (Add)                     (None, 2, 2, 32, 8)  0           conv2d_caps_20[0][0]             
                                                                 conv2d_caps_18[0][0]             
__________________________________________________________________________________________________
conv2d_caps_21 (Conv2DCaps)     (None, 2, 2, 32, 8)  589824      add_5[0][0]                      
__________________________________________________________________________________________________
conv2d_caps_23 (Conv2DCaps)     (None, 2, 2, 32, 8)  589824      conv2d_caps_21[0][0]             
__________________________________________________________________________________________________
conv2d_caps_24 (Conv2DCaps)     (None, 2, 2, 32, 8)  589824      conv2d_caps_23[0][0]             
__________________________________________________________________________________________________
conv2d_caps_22 (Conv2DCaps)     (None, 2, 2, 32, 8)  589824      conv2d_caps_21[0][0]             
__________________________________________________________________________________________________
add_6 (Add)                     (None, 2, 2, 32, 8)  0           conv2d_caps_24[0][0]             
                                                                 conv2d_caps_22[0][0]             
__________________________________________________________________________________________________
conv2d_caps_25 (Conv2DCaps)     (None, 2, 2, 32, 8)  589824      add_6[0][0]                      
__________________________________________________________________________________________________
conv2d_caps_26 (Conv2DCaps)     (None, 2, 2, 32, 8)  589824      conv2d_caps_25[0][0]             
__________________________________________________________________________________________________
conv2d_caps_27 (Conv2DCaps)     (None, 2, 2, 32, 8)  589824      conv2d_caps_26[0][0]             
__________________________________________________________________________________________________
conv_capsule_layer3d_1 (ConvCap (None, 2, 2, 32, 8)  18688       conv2d_caps_25[0][0]             
__________________________________________________________________________________________________
add_7 (Add)                     (None, 2, 2, 32, 8)  0           conv2d_caps_27[0][0]             
                                                                 conv_capsule_layer3d_1[0][0]     
__________________________________________________________________________________________________
flatten_caps_1 (FlattenCaps)    (None, 128, 8)       0           add_7[0][0]                      
__________________________________________________________________________________________________
flatten_caps_2 (FlattenCaps)    (None, 128, 8)       0           add_7[0][0]                      
__________________________________________________________________________________________________
concatenate_1 (Concatenate)     (None, 256, 8)       0           flatten_caps_1[0][0]             
                                                                 flatten_caps_2[0][0]             
__________________________________________________________________________________________________
digit_caps (DClassCaps)         (None, 10, 16)       327840      concatenate_1[0][0]              
__________________________________________________________________________________________________
input_2 (InputLayer)            (None, 10)           0                                            
__________________________________________________________________________________________________
mask_1 (Mask)                   (None, 160)          0           digit_caps[0][0]                 
                                                                 input_2[0][0]                    
__________________________________________________________________________________________________
capsnet (Length)                (None, 10)           0           digit_caps[0][0]                 
__________________________________________________________________________________________________
decoder (Sequential)            (None, 56, 56, 1)    159236      mask_1[0][0]                     
==================================================================================================
Total params: 14,414,544
Trainable params: 14,414,152
Non-trainable params: 392
__________________________________________________________________________________________________
Train shapes: (60000, 28, 28, 1) (60000, 10)
### runid: 0e54c9b20ec811ee974b218c4823db5d
…
Added Conv2_layer
[None, 14, 14, 16]
Added Conv3_layer
[None, 14, 14, 16]
Added Conv4_layer
[None, 14, 14, 64]
Added Conv5_layer
[None, 7, 7, 416]
rem 4
Added Caps1_layer
[None, 4, 4, 1088]
rem 3
Added Caps2_layer
[None, 2, 2, 96]
rem 2
Added Caps3_layer
[None, 2, 2, 168]
rem 1
Added Caps4_layer
[None, 2, 2, 168]
[None, None, 4]
[None, 10, 4]
[None, 10, 4]
Added ClassCaps_layer

_________________________________________________________________
Layer (type)                 Output Shape              Param #   
=================================================================
dense_1 (Dense)              (None, 784)               32144     
_________________________________________________________________
reshape_2 (Reshape)          (None, 7, 7, 16)          0         
_________________________________________________________________
batch_normalization_6 (Batch (None, 7, 7, 16)          64        
_________________________________________________________________
conv2d_transpose_1 (Conv2DTr (None, 7, 7, 64)          9280      
_________________________________________________________________
conv2d_transpose_2 (Conv2DTr (None, 14, 14, 32)        18464     
_________________________________________________________________
conv2d_transpose_3 (Conv2DTr (None, 28, 28, 16)        4624      
_________________________________________________________________
conv2d_transpose_4 (Conv2DTr (None, 28, 28, 1)         145       
_________________________________________________________________
activation_1 (Activation)    (None, 28, 28, 1)         0         
_________________________________________________________________
out_recon (Reshape)          (None, 28, 28, 1)         0         
=================================================================
Total params: 64,721
Trainable params: 64,689
Non-trainable params: 32
_________________________________________________________________
__________________________________________________________________________________________________
Layer (type)                    Output Shape         Param #     Connected to                     
==================================================================================================
input_1 (InputLayer)            (None, 28, 28, 1)    0                                            
__________________________________________________________________________________________________
conv2d_1 (Conv2D)               (None, 28, 28, 16)   1312        input_1[0][0]                    
__________________________________________________________________________________________________
batch_normalization_1 (BatchNor (None, 28, 28, 16)   64          conv2d_1[0][0]                   
__________________________________________________________________________________________________
conv2d_2 (Conv2D)               (None, 28, 28, 32)   41504       batch_normalization_1[0][0]      
__________________________________________________________________________________________________
batch_normalization_2 (BatchNor (None, 28, 28, 32)   128         conv2d_2[0][0]                   
__________________________________________________________________________________________________
conv2d_3 (Conv2D)               (None, 14, 14, 16)   12816       batch_normalization_2[0][0]      
__________________________________________________________________________________________________
batch_normalization_3 (BatchNor (None, 14, 14, 16)   64          conv2d_3[0][0]                   
__________________________________________________________________________________________________
conv2d_4 (Conv2D)               (None, 14, 14, 16)   2320        batch_normalization_3[0][0]      
__________________________________________________________________________________________________
batch_normalization_4 (BatchNor (None, 14, 14, 16)   64          conv2d_4[0][0]                   
__________________________________________________________________________________________________
conv2d_5 (Conv2D)               (None, 14, 14, 64)   9280        batch_normalization_4[0][0]      
__________________________________________________________________________________________________
batch_normalization_5 (BatchNor (None, 14, 14, 64)   256         conv2d_5[0][0]                   
__________________________________________________________________________________________________
conv2d_6 (Conv2D)               (None, 7, 7, 416)    666016      batch_normalization_5[0][0]      
__________________________________________________________________________________________________
lambda_1 (Lambda)               (None, 7, 7, 416)    0           conv2d_6[0][0]                   
__________________________________________________________________________________________________
conv2d_7 (Conv2D)               (None, 4, 4, 1088)   36662336    lambda_1[0][0]                   
__________________________________________________________________________________________________
lambda_2 (Lambda)               (None, 4, 4, 1088)   0           conv2d_7[0][0]                   
__________________________________________________________________________________________________
conv2d_8 (Conv2D)               (None, 2, 2, 96)     940128      lambda_2[0][0]                   
__________________________________________________________________________________________________
lambda_3 (Lambda)               (None, 2, 2, 96)     0           conv2d_8[0][0]                   
__________________________________________________________________________________________________
conv2d_9 (Conv2D)               (None, 2, 2, 168)    145320      lambda_3[0][0]                   
__________________________________________________________________________________________________
lambda_4 (Lambda)               (None, 2, 2, 168)    0           conv2d_9[0][0]                   
__________________________________________________________________________________________________
reshape_1 (Reshape)             (None, 168, 4)       0           lambda_4[0][0]                   
__________________________________________________________________________________________________
digitcaps (CapsuleLayer)        (None, 10, 4)        26880       reshape_1[0][0]                  
__________________________________________________________________________________________________
input_2 (InputLayer)            (None, 10)           0                                            
__________________________________________________________________________________________________
mask_1 (Mask)                   (None, 40)           0           digitcaps[0][0]                  
                                                                 input_2[0][0]                    
__________________________________________________________________________________________________
capsnet (Length)                (None, 10)           0           digitcaps[0][0]                  
__________________________________________________________________________________________________
decoder (Sequential)            (None, 28, 28, 1)    64721       mask_1[0][0]                     
==================================================================================================
Total params: 38,573,209
Trainable params: 38,572,889
Non-trainable params: 320
__________________________________________________________________________________________________
## ERR: number of trainable params 38572889 exceeded limit 20000000

Train accuracy: 0
…
Added Conv2_layer
[None, 14, 14, 16]
Added Conv3_layer
[None, 14, 14, 16]
Added Conv4_layer
[None, 14, 14, 64]
Added Conv5_layer
[None, 7, 7, 416]
rem 4
Added Caps1_layer
[None, 4, 4, 1088]
rem 3
Added Caps2_layer
[None, 2, 2, 128]
rem 2
Added Caps3_layer
[None, 2, 2, 168]
rem 1
Added Caps4_layer
[None, 2, 2, 168]
[None, None, 4]
[None, 10, 4]
[None, 10, 4]
Added ClassCaps_layer

_________________________________________________________________
Layer (type)                 Output Shape              Param #   
=================================================================
dense_1 (Dense)              (None, 784)               32144     
_________________________________________________________________
reshape_2 (Reshape)          (None, 7, 7, 16)          0         
_________________________________________________________________
batch_normalization_6 (Batch (None, 7, 7, 16)          64        
_________________________________________________________________
conv2d_transpose_1 (Conv2DTr (None, 7, 7, 64)          9280      
_________________________________________________________________
conv2d_transpose_2 (Conv2DTr (None, 14, 14, 32)        18464     
_________________________________________________________________
conv2d_transpose_3 (Conv2DTr (None, 28, 28, 16)        4624      
_________________________________________________________________
conv2d_transpose_4 (Conv2DTr (None, 28, 28, 1)         145       
_________________________________________________________________
activation_1 (Activation)    (None, 28, 28, 1)         0         
_________________________________________________________________
out_recon (Reshape)          (None, 28, 28, 1)         0         
=================================================================
Total params: 64,721
Trainable params: 64,689
Non-trainable params: 32
_________________________________________________________________
__________________________________________________________________________________________________
Layer (type)                    Output Shape         Param #     Connected to                     
==================================================================================================
input_1 (InputLayer)            (None, 28, 28, 1)    0                                            
__________________________________________________________________________________________________
conv2d_1 (Conv2D)               (None, 28, 28, 16)   1312        input_1[0][0]                    
__________________________________________________________________________________________________
batch_normalization_1 (BatchNor (None, 28, 28, 16)   64          conv2d_1[0][0]                   
__________________________________________________________________________________________________
conv2d_2 (Conv2D)               (None, 28, 28, 32)   41504       batch_normalization_1[0][0]      
__________________________________________________________________________________________________
batch_normalization_2 (BatchNor (None, 28, 28, 32)   128         conv2d_2[0][0]                   
__________________________________________________________________________________________________
conv2d_3 (Conv2D)               (None, 14, 14, 16)   12816       batch_normalization_2[0][0]      
__________________________________________________________________________________________________
batch_normalization_3 (BatchNor (None, 14, 14, 16)   64          conv2d_3[0][0]                   
__________________________________________________________________________________________________
conv2d_4 (Conv2D)               (None, 14, 14, 16)   2320        batch_normalization_3[0][0]      
__________________________________________________________________________________________________
batch_normalization_4 (BatchNor (None, 14, 14, 16)   64          conv2d_4[0][0]                   
__________________________________________________________________________________________________
conv2d_5 (Conv2D)               (None, 14, 14, 64)   9280        batch_normalization_4[0][0]      
__________________________________________________________________________________________________
batch_normalization_5 (BatchNor (None, 14, 14, 64)   256         conv2d_5[0][0]                   
__________________________________________________________________________________________________
conv2d_6 (Conv2D)               (None, 7, 7, 416)    666016      batch_normalization_5[0][0]      
__________________________________________________________________________________________________
lambda_1 (Lambda)               (None, 7, 7, 416)    0           conv2d_6[0][0]                   
__________________________________________________________________________________________________
conv2d_7 (Conv2D)               (None, 4, 4, 1088)   36662336    lambda_1[0][0]                   
__________________________________________________________________________________________________
lambda_2 (Lambda)               (None, 4, 4, 1088)   0           conv2d_7[0][0]                   
__________________________________________________________________________________________________
conv2d_8 (Conv2D)               (None, 2, 2, 128)    1253504     lambda_2[0][0]                   
__________________________________________________________________________________________________
lambda_3 (Lambda)               (None, 2, 2, 128)    0           conv2d_8[0][0]                   
__________________________________________________________________________________________________
conv2d_9 (Conv2D)               (None, 2, 2, 168)    193704      lambda_3[0][0]                   
__________________________________________________________________________________________________
lambda_4 (Lambda)               (None, 2, 2, 168)    0           conv2d_9[0][0]                   
__________________________________________________________________________________________________
reshape_1 (Reshape)             (None, 168, 4)       0           lambda_4[0][0]                   
__________________________________________________________________________________________________
digitcaps (CapsuleLayer)        (None, 10, 4)        26880       reshape_1[0][0]                  
__________________________________________________________________________________________________
input_2 (InputLayer)            (None, 10)           0                                            
__________________________________________________________________________________________________
mask_1 (Mask)                   (None, 40)           0           digitcaps[0][0]                  
                                                                 input_2[0][0]                    
__________________________________________________________________________________________________
capsnet (Length)                (None, 10)           0           digitcaps[0][0]                  
__________________________________________________________________________________________________
decoder (Sequential)            (None, 28, 28, 1)    64721       mask_1[0][0]                     
==================================================================================================
Total params: 38,934,969
Trainable params: 38,934,649
Non-trainable params: 320
__________________________________________________________________________________________________
## ERR: number of trainable params 38934649 exceeded limit 20000000

Train accuracy: 0
…
Added CapsCell_layer

[None, 2, 2, 32, 8]
Added CapsCell_layer

[None, 2, 2, 32, 8]
Added CapsCell_layer

[None, 2, 2, 32, 8]
Added CapsCell_layer

[None, 2, 2, 32, 8]
Added CapsCell_layer

[None, 2, 2, 32, 8]
Tensor("conv_capsule_layer3d_1/stack:0", shape=(5,), dtype=int32)
Added CapsCell_layer

[None, 2, 2, 32, 8]
[None, 2, 2, 32, 8]
[None, 128, 8]
Added FlattenCaps_layer

[None, 10, 8]
_________________________________________________________________
Layer (type)                 Output Shape              Param #   
=================================================================
dense_1 (Dense)              (None, 784)               63504     
_________________________________________________________________
reshape_1 (Reshape)          (None, 7, 7, 16)          0         
_________________________________________________________________
batch_normalization_6 (Batch (None, 7, 7, 16)          64        
_________________________________________________________________
conv2d_transpose_1 (Conv2DTr (None, 7, 7, 64)          9280      
_________________________________________________________________
conv2d_transpose_2 (Conv2DTr (None, 14, 14, 32)        18464     
_________________________________________________________________
conv2d_transpose_3 (Conv2DTr (None, 28, 28, 16)        4624      
_________________________________________________________________
conv2d_transpose_4 (Conv2DTr (None, 28, 28, 1)         145       
_________________________________________________________________
activation_1 (Activation)    (None, 28, 28, 1)         0         
_________________________________________________________________
out_recon (Reshape)          (None, 28, 28, 1)         0         
=================================================================
Total params: 96,081
Trainable params: 96,049
Non-trainable params: 32
_________________________________________________________________
__________________________________________________________________________________________________
Layer (type)                    Output Shape         Param #     Connected to                     
==================================================================================================
input_1 (InputLayer)            (None, 28, 28, 1)    0                                            
__________________________________________________________________________________________________
conv2d_1 (Conv2D)               (None, 28, 28, 64)   5248        input_1[0][0]                    
__________________________________________________________________________________________________
batch_normalization_1 (BatchNor (None, 28, 28, 64)   256         conv2d_1[0][0]                   
__________________________________________________________________________________________________
conv2d_2 (Conv2D)               (None, 14, 14, 8)    41480       batch_normalization_1[0][0]      
__________________________________________________________________________________________________
batch_normalization_2 (BatchNor (None, 14, 14, 8)    32          conv2d_2[0][0]                   
__________________________________________________________________________________________________
conv2d_3 (Conv2D)               (None, 14, 14, 64)   12864       batch_normalization_2[0][0]      
__________________________________________________________________________________________________
batch_normalization_3 (BatchNor (None, 14, 14, 64)   256         conv2d_3[0][0]                   
__________________________________________________________________________________________________
conv2d_4 (Conv2D)               (None, 7, 7, 32)     51232       batch_normalization_3[0][0]      
__________________________________________________________________________________________________
batch_normalization_4 (BatchNor (None, 7, 7, 32)     128         conv2d_4[0][0]                   
__________________________________________________________________________________________________
conv2d_5 (Conv2D)               (None, 4, 4, 32)     25632       batch_normalization_4[0][0]      
__________________________________________________________________________________________________
batch_normalization_5 (BatchNor (None, 4, 4, 32)     128         conv2d_5[0][0]                   
__________________________________________________________________________________________________
convert_to_caps_1 (ConvertToCap (None, 4, 4, 32, 1)  0           batch_normalization_5[0][0]      
__________________________________________________________________________________________________
conv2d_caps_1 (Conv2DCaps)      (None, 2, 2, 32, 4)  36864       convert_to_caps_1[0][0]          
__________________________________________________________________________________________________
conv2d_caps_3 (Conv2DCaps)      (None, 2, 2, 32, 4)  147456      conv2d_caps_1[0][0]              
__________________________________________________________________________________________________
conv2d_caps_4 (Conv2DCaps)      (None, 2, 2, 32, 4)  147456      conv2d_caps_3[0][0]              
__________________________________________________________________________________________________
conv2d_caps_2 (Conv2DCaps)      (None, 2, 2, 32, 4)  147456      conv2d_caps_1[0][0]              
__________________________________________________________________________________________________
add_1 (Add)                     (None, 2, 2, 32, 4)  0           conv2d_caps_4[0][0]              
                                                                 conv2d_caps_2[0][0]              
__________________________________________________________________________________________________
conv2d_caps_5 (Conv2DCaps)      (None, 2, 2, 32, 8)  294912      add_1[0][0]                      
__________________________________________________________________________________________________
conv2d_caps_7 (Conv2DCaps)      (None, 2, 2, 32, 8)  589824      conv2d_caps_5[0][0]              
__________________________________________________________________________________________________
conv2d_caps_8 (Conv2DCaps)      (None, 2, 2, 32, 8)  589824      conv2d_caps_7[0][0]              
__________________________________________________________________________________________________
conv2d_caps_6 (Conv2DCaps)      (None, 2, 2, 32, 8)  589824      conv2d_caps_5[0][0]              
__________________________________________________________________________________________________
add_2 (Add)                     (None, 2, 2, 32, 8)  0           conv2d_caps_8[0][0]              
                                                                 conv2d_caps_6[0][0]              
__________________________________________________________________________________________________
conv2d_caps_9 (Conv2DCaps)      (None, 2, 2, 32, 8)  589824      add_2[0][0]                      
__________________________________________________________________________________________________
conv2d_caps_11 (Conv2DCaps)     (None, 2, 2, 32, 8)  589824      conv2d_caps_9[0][0]              
__________________________________________________________________________________________________
conv2d_caps_12 (Conv2DCaps)     (None, 2, 2, 32, 8)  589824      conv2d_caps_11[0][0]             
__________________________________________________________________________________________________
conv2d_caps_10 (Conv2DCaps)     (None, 2, 2, 32, 8)  589824      conv2d_caps_9[0][0]              
__________________________________________________________________________________________________
add_3 (Add)                     (None, 2, 2, 32, 8)  0           conv2d_caps_12[0][0]             
                                                                 conv2d_caps_10[0][0]             
__________________________________________________________________________________________________
conv2d_caps_13 (Conv2DCaps)     (None, 2, 2, 32, 8)  589824      add_3[0][0]                      
__________________________________________________________________________________________________
conv2d_caps_15 (Conv2DCaps)     (None, 2, 2, 32, 8)  589824      conv2d_caps_13[0][0]             
__________________________________________________________________________________________________
conv2d_caps_16 (Conv2DCaps)     (None, 2, 2, 32, 8)  589824      conv2d_caps_15[0][0]             
__________________________________________________________________________________________________
conv2d_caps_14 (Conv2DCaps)     (None, 2, 2, 32, 8)  589824      conv2d_caps_13[0][0]             
__________________________________________________________________________________________________
add_4 (Add)                     (None, 2, 2, 32, 8)  0           conv2d_caps_16[0][0]             
                                                                 conv2d_caps_14[0][0]             
__________________________________________________________________________________________________
conv2d_caps_17 (Conv2DCaps)     (None, 2, 2, 32, 8)  589824      add_4[0][0]                      
__________________________________________________________________________________________________
conv2d_caps_19 (Conv2DCaps)     (None, 2, 2, 32, 8)  589824      conv2d_caps_17[0][0]             
__________________________________________________________________________________________________
conv2d_caps_20 (Conv2DCaps)     (None, 2, 2, 32, 8)  589824      conv2d_caps_19[0][0]             
__________________________________________________________________________________________________
conv2d_caps_18 (Conv2DCaps)     (None, 2, 2, 32, 8)  589824      conv2d_caps_17[0][0]             
__________________________________________________________________________________________________
add_5 (Add)                     (None, 2, 2, 32, 8)  0           conv2d_caps_20[0][0]             
                                                                 conv2d_caps_18[0][0]             
__________________________________________________________________________________________________
conv2d_caps_21 (Conv2DCaps)     (None, 2, 2, 32, 8)  589824      add_5[0][0]                      
__________________________________________________________________________________________________
conv2d_caps_23 (Conv2DCaps)     (None, 2, 2, 32, 8)  589824      conv2d_caps_21[0][0]             
__________________________________________________________________________________________________
conv2d_caps_24 (Conv2DCaps)     (None, 2, 2, 32, 8)  589824      conv2d_caps_23[0][0]             
__________________________________________________________________________________________________
conv2d_caps_22 (Conv2DCaps)     (None, 2, 2, 32, 8)  589824      conv2d_caps_21[0][0]             
__________________________________________________________________________________________________
add_6 (Add)                     (None, 2, 2, 32, 8)  0           conv2d_caps_24[0][0]             
                                                                 conv2d_caps_22[0][0]             
__________________________________________________________________________________________________
conv2d_caps_25 (Conv2DCaps)     (None, 2, 2, 32, 8)  589824      add_6[0][0]                      
__________________________________________________________________________________________________
conv2d_caps_26 (Conv2DCaps)     (None, 2, 2, 32, 8)  589824      conv2d_caps_25[0][0]             
__________________________________________________________________________________________________
conv2d_caps_27 (Conv2DCaps)     (None, 2, 2, 32, 8)  589824      conv2d_caps_26[0][0]             
__________________________________________________________________________________________________
conv_capsule_layer3d_1 (ConvCap (None, 2, 2, 32, 8)  18688       conv2d_caps_25[0][0]             
__________________________________________________________________________________________________
add_7 (Add)                     (None, 2, 2, 32, 8)  0           conv2d_caps_27[0][0]             
                                                                 conv_capsule_layer3d_1[0][0]     
__________________________________________________________________________________________________
flatten_caps_1 (FlattenCaps)    (None, 128, 8)       0           add_7[0][0]                      
__________________________________________________________________________________________________
flatten_caps_2 (FlattenCaps)    (None, 128, 8)       0           add_7[0][0]                      
__________________________________________________________________________________________________
concatenate_1 (Concatenate)     (None, 256, 8)       0           flatten_caps_1[0][0]             
                                                                 flatten_caps_2[0][0]             
__________________________________________________________________________________________________
digit_caps (DClassCaps)         (None, 10, 8)        163920      concatenate_1[0][0]              
__________________________________________________________________________________________________
input_2 (InputLayer)            (None, 10)           0                                            
__________________________________________________________________________________________________
mask_1 (Mask)                   (None, 80)           0           digit_caps[0][0]                 
                                                                 input_2[0][0]                    
__________________________________________________________________________________________________
capsnet (Length)                (None, 10)           0           digit_caps[0][0]                 
__________________________________________________________________________________________________
decoder (Sequential)            (None, 28, 28, 1)    96081       mask_1[0][0]                     
==================================================================================================
Total params: 14,166,217
Trainable params: 14,165,785
Non-trainable params: 432
__________________________________________________________________________________________________
Train shapes: (60000, 28, 28, 1) (60000, 10)
### runid: 0fc9e99e0ec811ee974b218c4823db5d
…
Added CapsCell_layer

[None, 2, 2, 32, 8]
Added CapsCell_layer

[None, 2, 2, 32, 8]
Added CapsCell_layer

[None, 2, 2, 32, 8]
Added CapsCell_layer

[None, 2, 2, 32, 8]
Added CapsCell_layer

[None, 2, 2, 32, 8]
Tensor("conv_capsule_layer3d_1/stack:0", shape=(5,), dtype=int32)
Added CapsCell_layer

[None, 2, 2, 32, 8]
[None, 2, 2, 32, 8]
[None, 128, 8]
Added FlattenCaps_layer

[None, 10, 8]
_________________________________________________________________
Layer (type)                 Output Shape              Param #   
=================================================================
dense_1 (Dense)              (None, 784)               63504     
_________________________________________________________________
reshape_1 (Reshape)          (None, 7, 7, 16)          0         
_________________________________________________________________
batch_normalization_6 (Batch (None, 7, 7, 16)          64        
_________________________________________________________________
conv2d_transpose_1 (Conv2DTr (None, 7, 7, 64)          9280      
_________________________________________________________________
conv2d_transpose_2 (Conv2DTr (None, 14, 14, 32)        18464     
_________________________________________________________________
conv2d_transpose_3 (Conv2DTr (None, 28, 28, 16)        4624      
_________________________________________________________________
conv2d_transpose_4 (Conv2DTr (None, 28, 28, 1)         145       
_________________________________________________________________
activation_1 (Activation)    (None, 28, 28, 1)         0         
_________________________________________________________________
out_recon (Reshape)          (None, 28, 28, 1)         0         
=================================================================
Total params: 96,081
Trainable params: 96,049
Non-trainable params: 32
_________________________________________________________________
__________________________________________________________________________________________________
Layer (type)                    Output Shape         Param #     Connected to                     
==================================================================================================
input_1 (InputLayer)            (None, 28, 28, 1)    0                                            
__________________________________________________________________________________________________
conv2d_1 (Conv2D)               (None, 28, 28, 64)   5248        input_1[0][0]                    
__________________________________________________________________________________________________
batch_normalization_1 (BatchNor (None, 28, 28, 64)   256         conv2d_1[0][0]                   
__________________________________________________________________________________________________
conv2d_2 (Conv2D)               (None, 14, 14, 8)    41480       batch_normalization_1[0][0]      
__________________________________________________________________________________________________
batch_normalization_2 (BatchNor (None, 14, 14, 8)    32          conv2d_2[0][0]                   
__________________________________________________________________________________________________
conv2d_3 (Conv2D)               (None, 14, 14, 64)   12864       batch_normalization_2[0][0]      
__________________________________________________________________________________________________
batch_normalization_3 (BatchNor (None, 14, 14, 64)   256         conv2d_3[0][0]                   
__________________________________________________________________________________________________
conv2d_4 (Conv2D)               (None, 7, 7, 32)     51232       batch_normalization_3[0][0]      
__________________________________________________________________________________________________
batch_normalization_4 (BatchNor (None, 7, 7, 32)     128         conv2d_4[0][0]                   
__________________________________________________________________________________________________
conv2d_5 (Conv2D)               (None, 4, 4, 32)     25632       batch_normalization_4[0][0]      
__________________________________________________________________________________________________
batch_normalization_5 (BatchNor (None, 4, 4, 32)     128         conv2d_5[0][0]                   
__________________________________________________________________________________________________
convert_to_caps_1 (ConvertToCap (None, 4, 4, 32, 1)  0           batch_normalization_5[0][0]      
__________________________________________________________________________________________________
conv2d_caps_1 (Conv2DCaps)      (None, 2, 2, 32, 4)  36864       convert_to_caps_1[0][0]          
__________________________________________________________________________________________________
conv2d_caps_3 (Conv2DCaps)      (None, 2, 2, 32, 4)  147456      conv2d_caps_1[0][0]              
__________________________________________________________________________________________________
conv2d_caps_4 (Conv2DCaps)      (None, 2, 2, 32, 4)  147456      conv2d_caps_3[0][0]              
__________________________________________________________________________________________________
conv2d_caps_2 (Conv2DCaps)      (None, 2, 2, 32, 4)  147456      conv2d_caps_1[0][0]              
__________________________________________________________________________________________________
add_1 (Add)                     (None, 2, 2, 32, 4)  0           conv2d_caps_4[0][0]              
                                                                 conv2d_caps_2[0][0]              
__________________________________________________________________________________________________
conv2d_caps_5 (Conv2DCaps)      (None, 2, 2, 32, 8)  819200      add_1[0][0]                      
__________________________________________________________________________________________________
conv2d_caps_7 (Conv2DCaps)      (None, 2, 2, 32, 8)  1638400     conv2d_caps_5[0][0]              
__________________________________________________________________________________________________
conv2d_caps_8 (Conv2DCaps)      (None, 2, 2, 32, 8)  1638400     conv2d_caps_7[0][0]              
__________________________________________________________________________________________________
conv2d_caps_6 (Conv2DCaps)      (None, 2, 2, 32, 8)  1638400     conv2d_caps_5[0][0]              
__________________________________________________________________________________________________
add_2 (Add)                     (None, 2, 2, 32, 8)  0           conv2d_caps_8[0][0]              
                                                                 conv2d_caps_6[0][0]              
__________________________________________________________________________________________________
conv2d_caps_9 (Conv2DCaps)      (None, 2, 2, 32, 8)  589824      add_2[0][0]                      
__________________________________________________________________________________________________
conv2d_caps_11 (Conv2DCaps)     (None, 2, 2, 32, 8)  589824      conv2d_caps_9[0][0]              
__________________________________________________________________________________________________
conv2d_caps_12 (Conv2DCaps)     (None, 2, 2, 32, 8)  589824      conv2d_caps_11[0][0]             
__________________________________________________________________________________________________
conv2d_caps_10 (Conv2DCaps)     (None, 2, 2, 32, 8)  589824      conv2d_caps_9[0][0]              
__________________________________________________________________________________________________
add_3 (Add)                     (None, 2, 2, 32, 8)  0           conv2d_caps_12[0][0]             
                                                                 conv2d_caps_10[0][0]             
__________________________________________________________________________________________________
conv2d_caps_13 (Conv2DCaps)     (None, 2, 2, 32, 8)  589824      add_3[0][0]                      
__________________________________________________________________________________________________
conv2d_caps_15 (Conv2DCaps)     (None, 2, 2, 32, 8)  589824      conv2d_caps_13[0][0]             
__________________________________________________________________________________________________
conv2d_caps_16 (Conv2DCaps)     (None, 2, 2, 32, 8)  589824      conv2d_caps_15[0][0]             
__________________________________________________________________________________________________
conv2d_caps_14 (Conv2DCaps)     (None, 2, 2, 32, 8)  589824      conv2d_caps_13[0][0]             
__________________________________________________________________________________________________
add_4 (Add)                     (None, 2, 2, 32, 8)  0           conv2d_caps_16[0][0]             
                                                                 conv2d_caps_14[0][0]             
__________________________________________________________________________________________________
conv2d_caps_17 (Conv2DCaps)     (None, 2, 2, 32, 8)  589824      add_4[0][0]                      
__________________________________________________________________________________________________
conv2d_caps_19 (Conv2DCaps)     (None, 2, 2, 32, 8)  589824      conv2d_caps_17[0][0]             
__________________________________________________________________________________________________
conv2d_caps_20 (Conv2DCaps)     (None, 2, 2, 32, 8)  589824      conv2d_caps_19[0][0]             
__________________________________________________________________________________________________
conv2d_caps_18 (Conv2DCaps)     (None, 2, 2, 32, 8)  589824      conv2d_caps_17[0][0]             
__________________________________________________________________________________________________
add_5 (Add)                     (None, 2, 2, 32, 8)  0           conv2d_caps_20[0][0]             
                                                                 conv2d_caps_18[0][0]             
__________________________________________________________________________________________________
conv2d_caps_21 (Conv2DCaps)     (None, 2, 2, 32, 8)  589824      add_5[0][0]                      
__________________________________________________________________________________________________
conv2d_caps_23 (Conv2DCaps)     (None, 2, 2, 32, 8)  589824      conv2d_caps_21[0][0]             
__________________________________________________________________________________________________
conv2d_caps_24 (Conv2DCaps)     (None, 2, 2, 32, 8)  589824      conv2d_caps_23[0][0]             
__________________________________________________________________________________________________
conv2d_caps_22 (Conv2DCaps)     (None, 2, 2, 32, 8)  589824      conv2d_caps_21[0][0]             
__________________________________________________________________________________________________
add_6 (Add)                     (None, 2, 2, 32, 8)  0           conv2d_caps_24[0][0]             
                                                                 conv2d_caps_22[0][0]             
__________________________________________________________________________________________________
conv2d_caps_25 (Conv2DCaps)     (None, 2, 2, 32, 8)  589824      add_6[0][0]                      
__________________________________________________________________________________________________
conv2d_caps_26 (Conv2DCaps)     (None, 2, 2, 32, 8)  589824      conv2d_caps_25[0][0]             
__________________________________________________________________________________________________
conv2d_caps_27 (Conv2DCaps)     (None, 2, 2, 32, 8)  589824      conv2d_caps_26[0][0]             
__________________________________________________________________________________________________
conv_capsule_layer3d_1 (ConvCap (None, 2, 2, 32, 8)  18688       conv2d_caps_25[0][0]             
__________________________________________________________________________________________________
add_7 (Add)                     (None, 2, 2, 32, 8)  0           conv2d_caps_27[0][0]             
                                                                 conv_capsule_layer3d_1[0][0]     
__________________________________________________________________________________________________
flatten_caps_1 (FlattenCaps)    (None, 128, 8)       0           add_7[0][0]                      
__________________________________________________________________________________________________
flatten_caps_2 (FlattenCaps)    (None, 128, 8)       0           add_7[0][0]                      
__________________________________________________________________________________________________
concatenate_1 (Concatenate)     (None, 256, 8)       0           flatten_caps_1[0][0]             
                                                                 flatten_caps_2[0][0]             
__________________________________________________________________________________________________
digit_caps (DClassCaps)         (None, 10, 8)        163920      concatenate_1[0][0]              
__________________________________________________________________________________________________
input_2 (InputLayer)            (None, 10)           0                                            
__________________________________________________________________________________________________
mask_1 (Mask)                   (None, 80)           0           digit_caps[0][0]                 
                                                                 input_2[0][0]                    
__________________________________________________________________________________________________
capsnet (Length)                (None, 10)           0           digit_caps[0][0]                 
__________________________________________________________________________________________________
decoder (Sequential)            (None, 28, 28, 1)    96081       mask_1[0][0]                     
==================================================================================================
Total params: 17,836,233
Trainable params: 17,835,801
Non-trainable params: 432
__________________________________________________________________________________________________
Train shapes: (60000, 28, 28, 1) (60000, 10)
### runid: 106304120ec811ee974b218c4823db5d
…
Added Conv1_layer
[None, 28, 28, 32]
Added Conv2_layer
[None, 14, 14, 16]
Added Conv3_layer
[None, 14, 14, 16]
Added Conv4_layer
[None, 14, 14, 64]
Added Conv5_layer
[None, 7, 7, 416]
rem 3
Added Caps1_layer
[None, 4, 4, 1088]
rem 2
Added Caps2_layer
[None, 4, 4, 168]
rem 1
Added Caps3_layer
[None, 4, 4, 168]
[None, None, 4]
[None, 10, 4]
[None, 10, 4]
Added ClassCaps_layer

_________________________________________________________________
Layer (type)                 Output Shape              Param #   
=================================================================
dense_1 (Dense)              (None, 784)               32144     
_________________________________________________________________
reshape_2 (Reshape)          (None, 7, 7, 16)          0         
_________________________________________________________________
batch_normalization_6 (Batch (None, 7, 7, 16)          64        
_________________________________________________________________
conv2d_transpose_1 (Conv2DTr (None, 7, 7, 64)          9280      
_________________________________________________________________
conv2d_transpose_2 (Conv2DTr (None, 14, 14, 32)        18464     
_________________________________________________________________
conv2d_transpose_3 (Conv2DTr (None, 28, 28, 16)        4624      
_________________________________________________________________
conv2d_transpose_4 (Conv2DTr (None, 28, 28, 1)         145       
_________________________________________________________________
activation_1 (Activation)    (None, 28, 28, 1)         0         
_________________________________________________________________
out_recon (Reshape)          (None, 28, 28, 1)         0         
=================================================================
Total params: 64,721
Trainable params: 64,689
Non-trainable params: 32
_________________________________________________________________
__________________________________________________________________________________________________
Layer (type)                    Output Shape         Param #     Connected to                     
==================================================================================================
input_1 (InputLayer)            (None, 28, 28, 1)    0                                            
__________________________________________________________________________________________________
conv2d_1 (Conv2D)               (None, 28, 28, 16)   1312        input_1[0][0]                    
__________________________________________________________________________________________________
batch_normalization_1 (BatchNor (None, 28, 28, 16)   64          conv2d_1[0][0]                   
__________________________________________________________________________________________________
conv2d_2 (Conv2D)               (None, 28, 28, 32)   41504       batch_normalization_1[0][0]      
__________________________________________________________________________________________________
batch_normalization_2 (BatchNor (None, 28, 28, 32)   128         conv2d_2[0][0]                   
__________________________________________________________________________________________________
conv2d_3 (Conv2D)               (None, 14, 14, 16)   12816       batch_normalization_2[0][0]      
__________________________________________________________________________________________________
batch_normalization_3 (BatchNor (None, 14, 14, 16)   64          conv2d_3[0][0]                   
__________________________________________________________________________________________________
conv2d_4 (Conv2D)               (None, 14, 14, 16)   2320        batch_normalization_3[0][0]      
__________________________________________________________________________________________________
batch_normalization_4 (BatchNor (None, 14, 14, 16)   64          conv2d_4[0][0]                   
__________________________________________________________________________________________________
conv2d_5 (Conv2D)               (None, 14, 14, 64)   9280        batch_normalization_4[0][0]      
__________________________________________________________________________________________________
batch_normalization_5 (BatchNor (None, 14, 14, 64)   256         conv2d_5[0][0]                   
__________________________________________________________________________________________________
conv2d_6 (Conv2D)               (None, 7, 7, 416)    666016      batch_normalization_5[0][0]      
__________________________________________________________________________________________________
lambda_1 (Lambda)               (None, 7, 7, 416)    0           conv2d_6[0][0]                   
__________________________________________________________________________________________________
conv2d_7 (Conv2D)               (None, 4, 4, 1088)   36662336    lambda_1[0][0]                   
__________________________________________________________________________________________________
lambda_2 (Lambda)               (None, 4, 4, 1088)   0           conv2d_7[0][0]                   
__________________________________________________________________________________________________
conv2d_8 (Conv2D)               (None, 4, 4, 168)    1645224     lambda_2[0][0]                   
__________________________________________________________________________________________________
lambda_3 (Lambda)               (None, 4, 4, 168)    0           conv2d_8[0][0]                   
__________________________________________________________________________________________________
reshape_1 (Reshape)             (None, 672, 4)       0           lambda_3[0][0]                   
__________________________________________________________________________________________________
digitcaps (CapsuleLayer)        (None, 10, 4)        107520      reshape_1[0][0]                  
__________________________________________________________________________________________________
input_2 (InputLayer)            (None, 10)           0                                            
__________________________________________________________________________________________________
mask_1 (Mask)                   (None, 40)           0           digitcaps[0][0]                  
                                                                 input_2[0][0]                    
__________________________________________________________________________________________________
capsnet (Length)                (None, 10)           0           digitcaps[0][0]                  
__________________________________________________________________________________________________
decoder (Sequential)            (None, 28, 28, 1)    64721       mask_1[0][0]                     
==================================================================================================
Total params: 39,213,625
Trainable params: 39,213,305
Non-trainable params: 320
__________________________________________________________________________________________________
## ERR: number of trainable params 39213305 exceeded limit 20000000

Train accuracy: 0
…
[None, 14, 14, 16]
Added Conv1_layer
[None, 14, 14, 32]
Added Conv2_layer
[None, 7, 7, 16]
Added Conv3_layer
[None, 7, 7, 16]
Added Conv4_layer
[None, 7, 7, 64]
Added Conv5_layer
[None, 4, 4, 416]
rem 3
Added Caps1_layer
[None, 2, 2, 1088]
rem 2
Added Caps2_layer
[None, 2, 2, 168]
rem 1
Added Caps3_layer
[None, 2, 2, 168]
[None, None, 4]
[None, 10, 4]
[None, 10, 4]
Added ClassCaps_layer

_________________________________________________________________
Layer (type)                 Output Shape              Param #   
=================================================================
dense_1 (Dense)              (None, 784)               32144     
_________________________________________________________________
reshape_2 (Reshape)          (None, 7, 7, 16)          0         
_________________________________________________________________
batch_normalization_6 (Batch (None, 7, 7, 16)          64        
_________________________________________________________________
conv2d_transpose_1 (Conv2DTr (None, 7, 7, 64)          9280      
_________________________________________________________________
conv2d_transpose_2 (Conv2DTr (None, 14, 14, 32)        18464     
_________________________________________________________________
conv2d_transpose_3 (Conv2DTr (None, 28, 28, 16)        4624      
_________________________________________________________________
conv2d_transpose_4 (Conv2DTr (None, 28, 28, 1)         145       
_________________________________________________________________
activation_1 (Activation)    (None, 28, 28, 1)         0         
_________________________________________________________________
out_recon (Reshape)          (None, 28, 28, 1)         0         
=================================================================
Total params: 64,721
Trainable params: 64,689
Non-trainable params: 32
_________________________________________________________________
__________________________________________________________________________________________________
Layer (type)                    Output Shape         Param #     Connected to                     
==================================================================================================
input_1 (InputLayer)            (None, 28, 28, 1)    0                                            
__________________________________________________________________________________________________
conv2d_1 (Conv2D)               (None, 14, 14, 16)   1312        input_1[0][0]                    
__________________________________________________________________________________________________
batch_normalization_1 (BatchNor (None, 14, 14, 16)   64          conv2d_1[0][0]                   
__________________________________________________________________________________________________
conv2d_2 (Conv2D)               (None, 14, 14, 32)   41504       batch_normalization_1[0][0]      
__________________________________________________________________________________________________
batch_normalization_2 (BatchNor (None, 14, 14, 32)   128         conv2d_2[0][0]                   
__________________________________________________________________________________________________
conv2d_3 (Conv2D)               (None, 7, 7, 16)     12816       batch_normalization_2[0][0]      
__________________________________________________________________________________________________
batch_normalization_3 (BatchNor (None, 7, 7, 16)     64          conv2d_3[0][0]                   
__________________________________________________________________________________________________
conv2d_4 (Conv2D)               (None, 7, 7, 16)     2320        batch_normalization_3[0][0]      
__________________________________________________________________________________________________
batch_normalization_4 (BatchNor (None, 7, 7, 16)     64          conv2d_4[0][0]                   
__________________________________________________________________________________________________
conv2d_5 (Conv2D)               (None, 7, 7, 64)     9280        batch_normalization_4[0][0]      
__________________________________________________________________________________________________
batch_normalization_5 (BatchNor (None, 7, 7, 64)     256         conv2d_5[0][0]                   
__________________________________________________________________________________________________
conv2d_6 (Conv2D)               (None, 4, 4, 416)    666016      batch_normalization_5[0][0]      
__________________________________________________________________________________________________
lambda_1 (Lambda)               (None, 4, 4, 416)    0           conv2d_6[0][0]                   
__________________________________________________________________________________________________
conv2d_7 (Conv2D)               (None, 2, 2, 1088)   36662336    lambda_1[0][0]                   
__________________________________________________________________________________________________
lambda_2 (Lambda)               (None, 2, 2, 1088)   0           conv2d_7[0][0]                   
__________________________________________________________________________________________________
conv2d_8 (Conv2D)               (None, 2, 2, 168)    1645224     lambda_2[0][0]                   
__________________________________________________________________________________________________
lambda_3 (Lambda)               (None, 2, 2, 168)    0           conv2d_8[0][0]                   
__________________________________________________________________________________________________
reshape_1 (Reshape)             (None, 168, 4)       0           lambda_3[0][0]                   
__________________________________________________________________________________________________
digitcaps (CapsuleLayer)        (None, 10, 4)        26880       reshape_1[0][0]                  
__________________________________________________________________________________________________
input_2 (InputLayer)            (None, 10)           0                                            
__________________________________________________________________________________________________
mask_1 (Mask)                   (None, 40)           0           digitcaps[0][0]                  
                                                                 input_2[0][0]                    
__________________________________________________________________________________________________
capsnet (Length)                (None, 10)           0           digitcaps[0][0]                  
__________________________________________________________________________________________________
decoder (Sequential)            (None, 28, 28, 1)    64721       mask_1[0][0]                     
==================================================================================================
Total params: 39,132,985
Trainable params: 39,132,665
Non-trainable params: 320
__________________________________________________________________________________________________
## ERR: number of trainable params 39132665 exceeded limit 20000000

Train accuracy: 0
…
x_train shape: (28, 28, 1)
### Input shape
xtra_skip is -1

[None, 28, 28, 8]
Added Conv1_layer
[None, 28, 28, 4]
Added Conv2_layer
[None, 28, 28, 4]
Added Conv3_layer
[None, 14, 14, 1024]
Added Conv4_layer
[None, 7, 7, 192]
rem 2
Added Caps1_layer
[None, 4, 4, 208]
rem 1
Added Caps2_layer
[None, 4, 4, 208]
[None, None, 8]
[None, 10, 64]
[None, 10, 64]
Added ClassCaps_layer

_________________________________________________________________
Layer (type)                 Output Shape              Param #   
=================================================================
dense_1 (Dense)              (None, 784)               502544    
_________________________________________________________________
reshape_2 (Reshape)          (None, 7, 7, 16)          0         
_________________________________________________________________
batch_normalization_5 (Batch (None, 7, 7, 16)          64        
_________________________________________________________________
conv2d_transpose_1 (Conv2DTr (None, 7, 7, 64)          9280      
_________________________________________________________________
conv2d_transpose_2 (Conv2DTr (None, 14, 14, 32)        18464     
_________________________________________________________________
conv2d_transpose_3 (Conv2DTr (None, 28, 28, 16)        4624      
_________________________________________________________________
conv2d_transpose_4 (Conv2DTr (None, 28, 28, 1)         145       
_________________________________________________________________
activation_1 (Activation)    (None, 28, 28, 1)         0         
_________________________________________________________________
out_recon (Reshape)          (None, 28, 28, 1)         0         
=================================================================
Total params: 535,121
Trainable params: 535,089
Non-trainable params: 32
_________________________________________________________________
__________________________________________________________________________________________________
Layer (type)                    Output Shape         Param #     Connected to                     
==================================================================================================
input_1 (InputLayer)            (None, 28, 28, 1)    0                                            
__________________________________________________________________________________________________
conv2d_1 (Conv2D)               (None, 28, 28, 8)    656         input_1[0][0]                    
__________________________________________________________________________________________________
batch_normalization_1 (BatchNor (None, 28, 28, 8)    32          conv2d_1[0][0]                   
__________________________________________________________________________________________________
conv2d_2 (Conv2D)               (None, 28, 28, 4)    292         batch_normalization_1[0][0]      
__________________________________________________________________________________________________
batch_normalization_2 (BatchNor (None, 28, 28, 4)    16          conv2d_2[0][0]                   
__________________________________________________________________________________________________
conv2d_3 (Conv2D)               (None, 28, 28, 4)    404         batch_normalization_2[0][0]      
__________________________________________________________________________________________________
batch_normalization_3 (BatchNor (None, 28, 28, 4)    16          conv2d_3[0][0]                   
__________________________________________________________________________________________________
conv2d_4 (Conv2D)               (None, 14, 14, 1024) 332800      batch_normalization_3[0][0]      
__________________________________________________________________________________________________
batch_normalization_4 (BatchNor (None, 14, 14, 1024) 4096        conv2d_4[0][0]                   
__________________________________________________________________________________________________
conv2d_5 (Conv2D)               (None, 7, 7, 192)    4915392     batch_normalization_4[0][0]      
__________________________________________________________________________________________________
…
__________________________________________________________________________________________________
conv2d_1 (Conv2D)               (None, 28, 28, 128)  1280        input_1[0][0]                    
__________________________________________________________________________________________________
batch_normalization_1 (BatchNor (None, 28, 28, 128)  512         conv2d_1[0][0]                   
__________________________________________________________________________________________________
reshape_1 (Reshape)             (None, 12544, 8)     0           batch_normalization_1[0][0]      
__________________________________________________________________________________________________
digitcaps (CapsuleLayer)        (None, 10, 16)       16056320    reshape_1[0][0]                  
__________________________________________________________________________________________________
input_2 (InputLayer)            (None, 10)           0                                            
__________________________________________________________________________________________________
mask_1 (Mask)                   (None, 160)          0           digitcaps[0][0]                  
                                                                 input_2[0][0]                    
__________________________________________________________________________________________________
capsnet (Length)                (None, 10)           0           digitcaps[0][0]                  
__________________________________________________________________________________________________
decoder (Sequential)            (None, 28, 28, 1)    158801      mask_1[0][0]                     
==================================================================================================
Total params: 16,216,913
Trainable params: 16,216,625
Non-trainable params: 288
__________________________________________________________________________________________________
Train shapes: (60000, 28, 28, 1) (60000, 10)
### runid: 986a83800ec811ee974b218c4823db5d
…
mute_type = 0
Fixing...
Fixed.
mute_type = 0
Fixing...
Fixed.
### EVAL candidate 0/10
[[0, 28, 1, 1, 3, 2, 14, 8, 32], [1, 14, 8, 32, 14, 1, 14, 10, 8], [-1], [1]]

Wrapping...

Number of devices: 1
x_train shape: (28, 28, 1)
### Input shape
xtra_skip is -1

[None, 14, 14, 256]
Added Conv1_layer
[None, 14, 14, 256]
[None, None, 8]
[None, 10, 8]
[None, 10, 8]
Added ClassCaps_layer

_________________________________________________________________
Layer (type)                 Output Shape              Param #   
=================================================================
dense_1 (Dense)              (None, 784)               63504     
_________________________________________________________________
reshape_2 (Reshape)          (None, 7, 7, 16)          0         
_________________________________________________________________
batch_normalization_2 (Batch (None, 7, 7, 16)          64        
_________________________________________________________________
conv2d_transpose_1 (Conv2DTr (None, 7, 7, 64)          9280      
_________________________________________________________________
conv2d_transpose_2 (Conv2DTr (None, 14, 14, 32)        18464     
_________________________________________________________________
conv2d_transpose_3 (Conv2DTr (None, 28, 28, 16)        4624      
_________________________________________________________________
conv2d_transpose_4 (Conv2DTr (None, 28, 28, 1)         145       
_________________________________________________________________
activation_1 (Activation)    (None, 28, 28, 1)         0         
_________________________________________________________________
out_recon (Reshape)          (None, 28, 28, 1)         0         
=================================================================
Total params: 96,081
Trainable params: 96,049
Non-trainable params: 32
_________________________________________________________________
__________________________________________________________________________________________________
Layer (type)                    Output Shape         Param #     Connected to                     
==================================================================================================
input_1 (InputLayer)            (None, 28, 28, 1)    0                                            
__________________________________________________________________________________________________
conv2d_1 (Conv2D)               (None, 14, 14, 256)  2560        input_1[0][0]                    
__________________________________________________________________________________________________
batch_normalization_1 (BatchNor (None, 14, 14, 256)  1024        conv2d_1[0][0]                   
__________________________________________________________________________________________________
reshape_1 (Reshape)             (None, 6272, 8)      0           batch_normalization_1[0][0]      
__________________________________________________________________________________________________
digitcaps (CapsuleLayer)        (None, 10, 8)        4014080     reshape_1[0][0]                  
__________________________________________________________________________________________________
input_2 (InputLayer)            (None, 10)           0                                            
__________________________________________________________________________________________________
mask_1 (Mask)                   (None, 80)           0           digitcaps[0][0]                  
                                                                 input_2[0][0]                    
__________________________________________________________________________________________________
capsnet (Length)                (None, 10)           0           digitcaps[0][0]                  
__________________________________________________________________________________________________
decoder (Sequential)            (None, 28, 28, 1)    96081       mask_1[0][0]                     
==================================================================================================
Total params: 4,113,745
Trainable params: 4,113,201
Non-trainable params: 544
__________________________________________________________________________________________________
Train shapes: (60000, 28, 28, 1) (60000, 10)
### runid: 99e434d60ec811ee974b218c4823db5d
…
Fixing...
Fixed.
mute_type = 0
Fixing...
Fixed.
### EVAL candidate 0/10
[[0, 28, 1, 1, 5, 1, 28, 16, 8], [1, 28, 16, 8, 28, 1, 28, 10, 32], [-1], [1]]

Wrapping...

Number of devices: 1
x_train shape: (28, 28, 1)
### Input shape
xtra_skip is -1

[None, 28, 28, 128]
Added Conv1_layer
[None, 28, 28, 128]
[None, None, 16]
[None, 10, 32]
[None, 10, 32]
Added ClassCaps_layer

_________________________________________________________________
Layer (type)                 Output Shape              Param #   
=================================================================
dense_1 (Dense)              (None, 784)               251664    
_________________________________________________________________
reshape_2 (Reshape)          (None, 7, 7, 16)          0         
_________________________________________________________________
batch_normalization_2 (Batch (None, 7, 7, 16)          64        
_________________________________________________________________
conv2d_transpose_1 (Conv2DTr (None, 7, 7, 64)          9280      
_________________________________________________________________
conv2d_transpose_2 (Conv2DTr (None, 14, 14, 32)        18464     
_________________________________________________________________
conv2d_transpose_3 (Conv2DTr (None, 28, 28, 16)        4624      
_________________________________________________________________
conv2d_transpose_4 (Conv2DTr (None, 28, 28, 1)         145       
_________________________________________________________________
activation_1 (Activation)    (None, 28, 28, 1)         0         
_________________________________________________________________
out_recon (Reshape)          (None, 28, 28, 1)         0         
=================================================================
Total params: 284,241
Trainable params: 284,209
Non-trainable params: 32
_________________________________________________________________
__________________________________________________________________________________________________
Layer (type)                    Output Shape         Param #     Connected to                     
==================================================================================================
input_1 (InputLayer)            (None, 28, 28, 1)    0                                            
__________________________________________________________________________________________________
conv2d_1 (Conv2D)               (None, 28, 28, 128)  3328        input_1[0][0]                    
__________________________________________________________________________________________________
batch_normalization_1 (BatchNor (None, 28, 28, 128)  512         conv2d_1[0][0]                   
__________________________________________________________________________________________________
reshape_1 (Reshape)             (None, 6272, 16)     0           batch_normalization_1[0][0]      
__________________________________________________________________________________________________
digitcaps (CapsuleLayer)        (None, 10, 32)       32112640    reshape_1[0][0]                  
__________________________________________________________________________________________________
input_2 (InputLayer)            (None, 10)           0                                            
__________________________________________________________________________________________________
mask_1 (Mask)                   (None, 320)          0           digitcaps[0][0]                  
                                                                 input_2[0][0]                    
__________________________________________________________________________________________________
capsnet (Length)                (None, 10)           0           digitcaps[0][0]                  
__________________________________________________________________________________________________
decoder (Sequential)            (None, 28, 28, 1)    284241      mask_1[0][0]                     
==================================================================================================
Total params: 32,400,721
Trainable params: 32,400,433
Non-trainable params: 288
__________________________________________________________________________________________________
## ERR: number of trainable params 32400433 exceeded limit 20000000

Train accuracy: 0
…
OPT eval accuracy_drop = 1
OPT eval energy = 0.7947829961952003
### EVAL candidate 2/10
[[0, 28, 1, 1, 5, 1, 28, 16, 8], [1, 28, 16, 8, 28, 1, 28, 10, 16], [-1], [1]]

Wrapping...

Number of devices: 1
x_train shape: (28, 28, 1)
### Input shape
xtra_skip is -1

[None, 28, 28, 128]
Added Conv1_layer
[None, 28, 28, 128]
[None, None, 16]
[None, 10, 16]
[None, 10, 16]
Added ClassCaps_layer

_________________________________________________________________
Layer (type)                 Output Shape              Param #   
=================================================================
dense_1 (Dense)              (None, 784)               126224    
_________________________________________________________________
reshape_2 (Reshape)          (None, 7, 7, 16)          0         
_________________________________________________________________
batch_normalization_2 (Batch (None, 7, 7, 16)          64        
_________________________________________________________________
conv2d_transpose_1 (Conv2DTr (None, 7, 7, 64)          9280      
_________________________________________________________________
conv2d_transpose_2 (Conv2DTr (None, 14, 14, 32)        18464     
_________________________________________________________________
conv2d_transpose_3 (Conv2DTr (None, 28, 28, 16)        4624      
_________________________________________________________________
conv2d_transpose_4 (Conv2DTr (None, 28, 28, 1)         145       
_________________________________________________________________
activation_1 (Activation)    (None, 28, 28, 1)         0         
_________________________________________________________________
out_recon (Reshape)          (None, 28, 28, 1)         0         
=================================================================
Total params: 158,801
Trainable params: 158,769
Non-trainable params: 32
_________________________________________________________________
__________________________________________________________________________________________________
Layer (type)                    Output Shape         Param #     Connected to                     
==================================================================================================
input_1 (InputLayer)            (None, 28, 28, 1)    0                                            
__________________________________________________________________________________________________
conv2d_1 (Conv2D)               (None, 28, 28, 128)  3328        input_1[0][0]                    
__________________________________________________________________________________________________
batch_normalization_1 (BatchNor (None, 28, 28, 128)  512         conv2d_1[0][0]                   
__________________________________________________________________________________________________
reshape_1 (Reshape)             (None, 6272, 16)     0           batch_normalization_1[0][0]      
__________________________________________________________________________________________________
digitcaps (CapsuleLayer)        (None, 10, 16)       16056320    reshape_1[0][0]                  
__________________________________________________________________________________________________
input_2 (InputLayer)            (None, 10)           0                                            
__________________________________________________________________________________________________
mask_1 (Mask)                   (None, 160)          0           digitcaps[0][0]                  
                                                                 input_2[0][0]                    
__________________________________________________________________________________________________
capsnet (Length)                (None, 10)           0           digitcaps[0][0]                  
__________________________________________________________________________________________________
decoder (Sequential)            (None, 28, 28, 1)    158801      mask_1[0][0]                     
==================================================================================================
Total params: 16,218,961
Trainable params: 16,218,673
Non-trainable params: 288
__________________________________________________________________________________________________
Train shapes: (60000, 28, 28, 1) (60000, 10)
### runid: 9d68c7d40ec811ee974b218c4823db5d
…
OPT eval accuracy_drop = 0.06975687378721496
OPT eval energy = 0.1950641942304
### EVAL candidate 6/10
[[0, 28, 1, 1, 9, 2, 14, 16, 8], [1, 14, 16, 8, 14, 1, 14, 10, 16], [-1], [1]]

Wrapping...

Number of devices: 1
x_train shape: (28, 28, 1)
### Input shape
xtra_skip is -1

[None, 14, 14, 128]
Added Conv1_layer
[None, 14, 14, 128]
[None, None, 16]
[None, 10, 16]
[None, 10, 16]
Added ClassCaps_layer

_________________________________________________________________
Layer (type)                 Output Shape              Param #   
=================================================================
dense_1 (Dense)              (None, 784)               126224    
_________________________________________________________________
reshape_2 (Reshape)          (None, 7, 7, 16)          0         
_________________________________________________________________
batch_normalization_2 (Batch (None, 7, 7, 16)          64        
_________________________________________________________________
conv2d_transpose_1 (Conv2DTr (None, 7, 7, 64)          9280      
_________________________________________________________________
conv2d_transpose_2 (Conv2DTr (None, 14, 14, 32)        18464     
_________________________________________________________________
conv2d_transpose_3 (Conv2DTr (None, 28, 28, 16)        4624      
_________________________________________________________________
conv2d_transpose_4 (Conv2DTr (None, 28, 28, 1)         145       
_________________________________________________________________
activation_1 (Activation)    (None, 28, 28, 1)         0         
_________________________________________________________________
out_recon (Reshape)          (None, 28, 28, 1)         0         
=================================================================
Total params: 158,801
Trainable params: 158,769
Non-trainable params: 32
_________________________________________________________________
__________________________________________________________________________________________________
Layer (type)                    Output Shape         Param #     Connected to                     
==================================================================================================
input_1 (InputLayer)            (None, 28, 28, 1)    0                                            
__________________________________________________________________________________________________
conv2d_1 (Conv2D)               (None, 14, 14, 128)  10496       input_1[0][0]                    
__________________________________________________________________________________________________
batch_normalization_1 (BatchNor (None, 14, 14, 128)  512         conv2d_1[0][0]                   
__________________________________________________________________________________________________
reshape_1 (Reshape)             (None, 1568, 16)     0           batch_normalization_1[0][0]      
__________________________________________________________________________________________________
digitcaps (CapsuleLayer)        (None, 10, 16)       4014080     reshape_1[0][0]                  
__________________________________________________________________________________________________
input_2 (InputLayer)            (None, 10)           0                                            
__________________________________________________________________________________________________
mask_1 (Mask)                   (None, 160)          0           digitcaps[0][0]                  
                                                                 input_2[0][0]                    
__________________________________________________________________________________________________
capsnet (Length)                (None, 10)           0           digitcaps[0][0]                  
__________________________________________________________________________________________________
decoder (Sequential)            (None, 28, 28, 1)    158801      mask_1[0][0]                     
==================================================================================================
Total params: 4,183,889
Trainable params: 4,183,601
Non-trainable params: 288
__________________________________________________________________________________________________
Train shapes: (60000, 28, 28, 1) (60000, 10)
### runid: 9e9e14f60ec811ee974b218c4823db5d
…
OPT eval accuracy_drop = 0.3475502475148976
OPT eval energy = 0.10316138775360001
### EVAL candidate 4/10
[[0, 28, 1, 1, 5, 2, 14, 8, 4], [1, 14, 8, 4, 14, 2, 7, 10, 16], [-1], [1]]

Wrapping...

Number of devices: 1
x_train shape: (28, 28, 1)
### Input shape
xtra_skip is -1

[None, 14, 14, 32]
Added Conv1_layer
[None, 14, 14, 32]
[None, None, 8]
[None, 10, 16]
[None, 10, 16]
Added ClassCaps_layer

_________________________________________________________________
Layer (type)                 Output Shape              Param #   
=================================================================
dense_1 (Dense)              (None, 784)               126224    
_________________________________________________________________
reshape_2 (Reshape)          (None, 7, 7, 16)          0         
_________________________________________________________________
batch_normalization_2 (Batch (None, 7, 7, 16)          64        
_________________________________________________________________
conv2d_transpose_1 (Conv2DTr (None, 7, 7, 64)          9280      
_________________________________________________________________
conv2d_transpose_2 (Conv2DTr (None, 14, 14, 32)        18464     
_________________________________________________________________
conv2d_transpose_3 (Conv2DTr (None, 28, 28, 16)        4624      
_________________________________________________________________
conv2d_transpose_4 (Conv2DTr (None, 28, 28, 1)         145       
_________________________________________________________________
activation_1 (Activation)    (None, 28, 28, 1)         0         
_________________________________________________________________
out_recon (Reshape)          (None, 28, 28, 1)         0         
=================================================================
Total params: 158,801
Trainable params: 158,769
Non-trainable params: 32
_________________________________________________________________
__________________________________________________________________________________________________
Layer (type)                    Output Shape         Param #     Connected to                     
==================================================================================================
input_1 (InputLayer)            (None, 28, 28, 1)    0                                            
__________________________________________________________________________________________________
conv2d_1 (Conv2D)               (None, 14, 14, 32)   832         input_1[0][0]                    
__________________________________________________________________________________________________
batch_normalization_1 (BatchNor (None, 14, 14, 32)   128         conv2d_1[0][0]                   
__________________________________________________________________________________________________
reshape_1 (Reshape)             (None, 784, 8)       0           batch_normalization_1[0][0]      
__________________________________________________________________________________________________
digitcaps (CapsuleLayer)        (None, 10, 16)       1003520     reshape_1[0][0]                  
__________________________________________________________________________________________________
input_2 (InputLayer)            (None, 10)           0                                            
__________________________________________________________________________________________________
mask_1 (Mask)                   (None, 160)          0           digitcaps[0][0]                  
                                                                 input_2[0][0]                    
__________________________________________________________________________________________________
capsnet (Length)                (None, 10)           0           digitcaps[0][0]                  
__________________________________________________________________________________________________
decoder (Sequential)            (None, 28, 28, 1)    158801      mask_1[0][0]                     
==================================================================================================
Total params: 1,163,281
Trainable params: 1,163,185
Non-trainable params: 96
__________________________________________________________________________________________________
Train shapes: (60000, 28, 28, 1) (60000, 10)
### runid: a10296c20ec811ee974b218c4823db5d
…
mute_type = 0
Fixing...
Fixed.
mute_type = 0
Fixing...
Fixed.
### EVAL candidate 0/10
[[0, 28, 1, 1, 9, 1, 28, 8, 4], [1, 28, 8, 4, 28, 1, 28, 10, 16], [-1], [1]]

Wrapping...

Number of devices: 1
x_train shape: (28, 28, 1)
### Input shape
xtra_skip is -1

[None, 28, 28, 32]
Added Conv1_layer
[None, 28, 28, 32]
[None, None, 8]
[None, 10, 16]
[None, 10, 16]
Added ClassCaps_layer

_________________________________________________________________
Layer (type)                 Output Shape              Param #   
=================================================================
dense_1 (Dense)              (None, 784)               126224    
_________________________________________________________________
reshape_2 (Reshape)          (None, 7, 7, 16)          0         
_________________________________________________________________
batch_normalization_2 (Batch (None, 7, 7, 16)          64        
_________________________________________________________________
conv2d_transpose_1 (Conv2DTr (None, 7, 7, 64)          9280      
_________________________________________________________________
conv2d_transpose_2 (Conv2DTr (None, 14, 14, 32)        18464     
_________________________________________________________________
conv2d_transpose_3 (Conv2DTr (None, 28, 28, 16)        4624      
_________________________________________________________________
conv2d_transpose_4 (Conv2DTr (None, 28, 28, 1)         145       
_________________________________________________________________
activation_1 (Activation)    (None, 28, 28, 1)         0         
_________________________________________________________________
out_recon (Reshape)          (None, 28, 28, 1)         0         
=================================================================
Total params: 158,801
Trainable params: 158,769
Non-trainable params: 32
_________________________________________________________________
__________________________________________________________________________________________________
Layer (type)                    Output Shape         Param #     Connected to                     
==================================================================================================
input_1 (InputLayer)            (None, 28, 28, 1)    0                                            
__________________________________________________________________________________________________
conv2d_1 (Conv2D)               (None, 28, 28, 32)   2624        input_1[0][0]                    
__________________________________________________________________________________________________
batch_normalization_1 (BatchNor (None, 28, 28, 32)   128         conv2d_1[0][0]                   
__________________________________________________________________________________________________
reshape_1 (Reshape)             (None, 3136, 8)      0           batch_normalization_1[0][0]      
__________________________________________________________________________________________________
digitcaps (CapsuleLayer)        (None, 10, 16)       4014080     reshape_1[0][0]                  
__________________________________________________________________________________________________
input_2 (InputLayer)            (None, 10)           0                                            
__________________________________________________________________________________________________
mask_1 (Mask)                   (None, 160)          0           digitcaps[0][0]                  
                                                                 input_2[0][0]                    
__________________________________________________________________________________________________
capsnet (Length)                (None, 10)           0           digitcaps[0][0]                  
__________________________________________________________________________________________________
decoder (Sequential)            (None, 28, 28, 1)    158801      mask_1[0][0]                     
==================================================================================================
Total params: 4,175,633
Trainable params: 4,175,537
Non-trainable params: 96
__________________________________________________________________________________________________
Train shapes: (60000, 28, 28, 1) (60000, 10)
### runid: a2c662c20ec811ee974b218c4823db5d
…
OPT eval accuracy_drop = 1
OPT eval energy = 0.7797502512095998
### EVAL candidate 5/10
[[0, 28, 1, 1, 3, 1, 28, 8, 16], [1, 28, 8, 16, 28, 1, 28, 10, 64], [-1], [1]]

Wrapping...

Number of devices: 1
x_train shape: (28, 28, 1)
### Input shape
xtra_skip is -1

[None, 28, 28, 128]
Added Conv1_layer
[None, 28, 28, 128]
[None, None, 8]
[None, 10, 64]
[None, 10, 64]
Added ClassCaps_layer

_________________________________________________________________
Layer (type)                 Output Shape              Param #   
=================================================================
dense_1 (Dense)              (None, 784)               502544    
_________________________________________________________________
reshape_2 (Reshape)          (None, 7, 7, 16)          0         
_________________________________________________________________
batch_normalization_2 (Batch (None, 7, 7, 16)          64        
_________________________________________________________________
conv2d_transpose_1 (Conv2DTr (None, 7, 7, 64)          9280      
_________________________________________________________________
conv2d_transpose_2 (Conv2DTr (None, 14, 14, 32)        18464     
_________________________________________________________________
conv2d_transpose_3 (Conv2DTr (None, 28, 28, 16)        4624      
_________________________________________________________________
conv2d_transpose_4 (Conv2DTr (None, 28, 28, 1)         145       
_________________________________________________________________
activation_1 (Activation)    (None, 28, 28, 1)         0         
_________________________________________________________________
out_recon (Reshape)          (None, 28, 28, 1)         0         
=================================================================
Total params: 535,121
Trainable params: 535,089
Non-trainable params: 32
_________________________________________________________________
__________________________________________________________________________________________________
Layer (type)                    Output Shape         Param #     Connected to                     
==================================================================================================
input_1 (InputLayer)            (None, 28, 28, 1)    0                                            
__________________________________________________________________________________________________
conv2d_1 (Conv2D)               (None, 28, 28, 128)  1280        input_1[0][0]                    
__________________________________________________________________________________________________
batch_normalization_1 (BatchNor (None, 28, 28, 128)  512         conv2d_1[0][0]                   
__________________________________________________________________________________________________
reshape_1 (Reshape)             (None, 12544, 8)     0           batch_normalization_1[0][0]      
__________________________________________________________________________________________________
digitcaps (CapsuleLayer)        (None, 10, 64)       64225280    reshape_1[0][0]                  
__________________________________________________________________________________________________
input_2 (InputLayer)            (None, 10)           0                                            
__________________________________________________________________________________________________
mask_1 (Mask)                   (None, 640)          0           digitcaps[0][0]                  
                                                                 input_2[0][0]                    
__________________________________________________________________________________________________
capsnet (Length)                (None, 10)           0           digitcaps[0][0]                  
__________________________________________________________________________________________________
decoder (Sequential)            (None, 28, 28, 1)    535121      mask_1[0][0]                     
==================================================================================================
Total params: 64,762,193
Trainable params: 64,761,905
Non-trainable params: 288
__________________________________________________________________________________________________
## ERR: number of trainable params 64761905 exceeded limit 20000000

Train accuracy: 0
…
OPT eval accuracy_drop = 0.17622193390144048
OPT eval energy = 0.3900621211872001
### EVAL candidate 9/10
[[0, 28, 1, 1, 3, 1, 28, 8, 16], [1, 28, 8, 16, 28, 1, 28, 10, 4], [-1], [1]]

Wrapping...

Number of devices: 1
x_train shape: (28, 28, 1)
### Input shape
xtra_skip is -1

[None, 28, 28, 128]
Added Conv1_layer
[None, 28, 28, 128]
[None, None, 8]
[None, 10, 4]
[None, 10, 4]
Added ClassCaps_layer

_________________________________________________________________
Layer (type)                 Output Shape              Param #   
=================================================================
dense_1 (Dense)              (None, 784)               32144     
_________________________________________________________________
reshape_2 (Reshape)          (None, 7, 7, 16)          0         
_________________________________________________________________
batch_normalization_2 (Batch (None, 7, 7, 16)          64        
_________________________________________________________________
conv2d_transpose_1 (Conv2DTr (None, 7, 7, 64)          9280      
_________________________________________________________________
conv2d_transpose_2 (Conv2DTr (None, 14, 14, 32)        18464     
_________________________________________________________________
conv2d_transpose_3 (Conv2DTr (None, 28, 28, 16)        4624      
_________________________________________________________________
conv2d_transpose_4 (Conv2DTr (None, 28, 28, 1)         145       
_________________________________________________________________
activation_1 (Activation)    (None, 28, 28, 1)         0         
_________________________________________________________________
out_recon (Reshape)          (None, 28, 28, 1)         0         
=================================================================
Total params: 64,721
Trainable params: 64,689
Non-trainable params: 32
_________________________________________________________________
__________________________________________________________________________________________________
Layer (type)                    Output Shape         Param #     Connected to                     
==================================================================================================
input_1 (InputLayer)            (None, 28, 28, 1)    0                                            
__________________________________________________________________________________________________
conv2d_1 (Conv2D)               (None, 28, 28, 128)  1280        input_1[0][0]                    
__________________________________________________________________________________________________
batch_normalization_1 (BatchNor (None, 28, 28, 128)  512         conv2d_1[0][0]                   
__________________________________________________________________________________________________
reshape_1 (Reshape)             (None, 12544, 8)     0           batch_normalization_1[0][0]      
__________________________________________________________________________________________________
digitcaps (CapsuleLayer)        (None, 10, 4)        4014080     reshape_1[0][0]                  
__________________________________________________________________________________________________
input_2 (InputLayer)            (None, 10)           0                                            
__________________________________________________________________________________________________
mask_1 (Mask)                   (None, 40)           0           digitcaps[0][0]                  
                                                                 input_2[0][0]                    
__________________________________________________________________________________________________
capsnet (Length)                (None, 10)           0           digitcaps[0][0]                  
__________________________________________________________________________________________________
decoder (Sequential)            (None, 28, 28, 1)    64721       mask_1[0][0]                     
==================================================================================================
Total params: 4,080,593
Trainable params: 4,080,305
Non-trainable params: 288
__________________________________________________________________________________________________
Train shapes: (60000, 28, 28, 1) (60000, 10)
### runid: a576b7f60ec811ee974b218c4823db5d
…
mute_type = 0
Fixing...
Fixed.
mute_type = 0
Fixing...
Fixed.
### EVAL candidate 0/10
[[0, 28, 1, 1, 9, 1, 28, 8, 4], [1, 28, 8, 4, 28, 1, 28, 10, 32], [-1], [1]]

Wrapping...

Number of devices: 1
x_train shape: (28, 28, 1)
### Input shape
xtra_skip is -1

[None, 28, 28, 32]
Added Conv1_layer
[None, 28, 28, 32]
[None, None, 8]
[None, 10, 32]
[None, 10, 32]
Added ClassCaps_layer

_________________________________________________________________
Layer (type)                 Output Shape              Param #   
=================================================================
dense_1 (Dense)              (None, 784)               251664    
_________________________________________________________________
reshape_2 (Reshape)          (None, 7, 7, 16)          0         
_________________________________________________________________
batch_normalization_2 (Batch (None, 7, 7, 16)          64        
_________________________________________________________________
conv2d_transpose_1 (Conv2DTr (None, 7, 7, 64)          9280      
_________________________________________________________________
conv2d_transpose_2 (Conv2DTr (None, 14, 14, 32)        18464     
_________________________________________________________________
conv2d_transpose_3 (Conv2DTr (None, 28, 28, 16)        4624      
_________________________________________________________________
conv2d_transpose_4 (Conv2DTr (None, 28, 28, 1)         145       
_________________________________________________________________
activation_1 (Activation)    (None, 28, 28, 1)         0         
_________________________________________________________________
out_recon (Reshape)          (None, 28, 28, 1)         0         
=================================================================
Total params: 284,241
Trainable params: 284,209
Non-trainable params: 32
_________________________________________________________________
__________________________________________________________________________________________________
Layer (type)                    Output Shape         Param #     Connected to                     
==================================================================================================
input_1 (InputLayer)            (None, 28, 28, 1)    0                                            
__________________________________________________________________________________________________
conv2d_1 (Conv2D)               (None, 28, 28, 32)   2624        input_1[0][0]                    
__________________________________________________________________________________________________
batch_normalization_1 (BatchNor (None, 28, 28, 32)   128         conv2d_1[0][0]                   
__________________________________________________________________________________________________
reshape_1 (Reshape)             (None, 3136, 8)      0           batch_normalization_1[0][0]      
__________________________________________________________________________________________________
digitcaps (CapsuleLayer)        (None, 10, 32)       8028160     reshape_1[0][0]                  
__________________________________________________________________________________________________
input_2 (InputLayer)            (None, 10)           0                                            
__________________________________________________________________________________________________
mask_1 (Mask)                   (None, 320)          0           digitcaps[0][0]                  
                                                                 input_2[0][0]                    
__________________________________________________________________________________________________
capsnet (Length)                (None, 10)           0           digitcaps[0][0]                  
__________________________________________________________________________________________________
decoder (Sequential)            (None, 28, 28, 1)    284241      mask_1[0][0]                     
==================================================================================================
Total params: 8,315,153
Trainable params: 8,315,057
Non-trainable params: 96
__________________________________________________________________________________________________
Train shapes: (60000, 28, 28, 1) (60000, 10)
### runid: a5c6a1d00ec811ee974b218c4823db5d
…
OPT eval accuracy_drop = 0.39301806938133454
OPT eval energy = 0.04981851758400002
### EVAL candidate 4/10
[[0, 28, 1, 1, 9, 2, 14, 8, 8], [1, 14, 8, 8, 14, 1, 14, 10, 4], [-1], [1]]

Wrapping...

Number of devices: 1
x_train shape: (28, 28, 1)
### Input shape
xtra_skip is -1

[None, 14, 14, 64]
Added Conv1_layer
[None, 14, 14, 64]
[None, None, 8]
[None, 10, 4]
[None, 10, 4]
Added ClassCaps_layer

_________________________________________________________________
Layer (type)                 Output Shape              Param #   
=================================================================
dense_1 (Dense)              (None, 784)               32144     
_________________________________________________________________
reshape_2 (Reshape)          (None, 7, 7, 16)          0         
_________________________________________________________________
batch_normalization_2 (Batch (None, 7, 7, 16)          64        
_________________________________________________________________
conv2d_transpose_1 (Conv2DTr (None, 7, 7, 64)          9280      
_________________________________________________________________
conv2d_transpose_2 (Conv2DTr (None, 14, 14, 32)        18464     
_________________________________________________________________
conv2d_transpose_3 (Conv2DTr (None, 28, 28, 16)        4624      
_________________________________________________________________
conv2d_transpose_4 (Conv2DTr (None, 28, 28, 1)         145       
_________________________________________________________________
activation_1 (Activation)    (None, 28, 28, 1)         0         
_________________________________________________________________
out_recon (Reshape)          (None, 28, 28, 1)         0         
=================================================================
Total params: 64,721
Trainable params: 64,689
Non-trainable params: 32
_________________________________________________________________
__________________________________________________________________________________________________
Layer (type)                    Output Shape         Param #     Connected to                     
==================================================================================================
input_1 (InputLayer)            (None, 28, 28, 1)    0                                            
__________________________________________________________________________________________________
conv2d_1 (Conv2D)               (None, 14, 14, 64)   5248        input_1[0][0]                    
__________________________________________________________________________________________________
batch_normalization_1 (BatchNor (None, 14, 14, 64)   256         conv2d_1[0][0]                   
__________________________________________________________________________________________________
reshape_1 (Reshape)             (None, 1568, 8)      0           batch_normalization_1[0][0]      
__________________________________________________________________________________________________
digitcaps (CapsuleLayer)        (None, 10, 4)        501760      reshape_1[0][0]                  
__________________________________________________________________________________________________
input_2 (InputLayer)            (None, 10)           0                                            
__________________________________________________________________________________________________
mask_1 (Mask)                   (None, 40)           0           digitcaps[0][0]                  
                                                                 input_2[0][0]                    
__________________________________________________________________________________________________
capsnet (Length)                (None, 10)           0           digitcaps[0][0]                  
__________________________________________________________________________________________________
decoder (Sequential)            (None, 28, 28, 1)    64721       mask_1[0][0]                     
==================================================================================================
Total params: 571,985
Trainable params: 571,825
Non-trainable params: 160
__________________________________________________________________________________________________
Train shapes: (60000, 28, 28, 1) (60000, 10)
### runid: a6f1f69a0ec811ee974b218c4823db5d
…
OPT eval accuracy_drop = 0.2560912840122147
OPT eval energy = 0.10316138775360001
### EVAL candidate 9/10
[[0, 28, 1, 1, 9, 2, 14, 8, 4], [1, 14, 8, 4, 14, 1, 14, 10, 64], [-1], [1]]

Wrapping...

Number of devices: 1
x_train shape: (28, 28, 1)
### Input shape
xtra_skip is -1

[None, 14, 14, 32]
Added Conv1_layer
[None, 14, 14, 32]
[None, None, 8]
[None, 10, 64]
[None, 10, 64]
Added ClassCaps_layer

_________________________________________________________________
Layer (type)                 Output Shape              Param #   
=================================================================
dense_1 (Dense)              (None, 784)               502544    
_________________________________________________________________
reshape_2 (Reshape)          (None, 7, 7, 16)          0         
_________________________________________________________________
batch_normalization_2 (Batch (None, 7, 7, 16)          64        
_________________________________________________________________
conv2d_transpose_1 (Conv2DTr (None, 7, 7, 64)          9280      
_________________________________________________________________
conv2d_transpose_2 (Conv2DTr (None, 14, 14, 32)        18464     
_________________________________________________________________
conv2d_transpose_3 (Conv2DTr (None, 28, 28, 16)        4624      
_________________________________________________________________
conv2d_transpose_4 (Conv2DTr (None, 28, 28, 1)         145       
_________________________________________________________________
activation_1 (Activation)    (None, 28, 28, 1)         0         
_________________________________________________________________
out_recon (Reshape)          (None, 28, 28, 1)         0         
=================================================================
Total params: 535,121
Trainable params: 535,089
Non-trainable params: 32
_________________________________________________________________
__________________________________________________________________________________________________
Layer (type)                    Output Shape         Param #     Connected to                     
==================================================================================================
input_1 (InputLayer)            (None, 28, 28, 1)    0                                            
__________________________________________________________________________________________________
conv2d_1 (Conv2D)               (None, 14, 14, 32)   2624        input_1[0][0]                    
__________________________________________________________________________________________________
batch_normalization_1 (BatchNor (None, 14, 14, 32)   128         conv2d_1[0][0]                   
__________________________________________________________________________________________________
reshape_1 (Reshape)             (None, 784, 8)       0           batch_normalization_1[0][0]      
__________________________________________________________________________________________________
digitcaps (CapsuleLayer)        (None, 10, 64)       4014080     reshape_1[0][0]                  
__________________________________________________________________________________________________
input_2 (InputLayer)            (None, 10)           0                                            
__________________________________________________________________________________________________
mask_1 (Mask)                   (None, 640)          0           digitcaps[0][0]                  
                                                                 input_2[0][0]                    
__________________________________________________________________________________________________
capsnet (Length)                (None, 10)           0           digitcaps[0][0]                  
__________________________________________________________________________________________________
decoder (Sequential)            (None, 28, 28, 1)    535121      mask_1[0][0]                     
==================================================================================================
Total params: 4,551,953
Trainable params: 4,551,857
Non-trainable params: 96
__________________________________________________________________________________________________
Train shapes: (60000, 28, 28, 1) (60000, 10)
### runid: a86bd1260ec811ee974b218c4823db5d
…
